Data/Params_/R_max/r_net_69.pth (torch, 411559 bytes, 23 tensors)

pre_layer.0.weight f4 [28, 3, 3, 3]
0	0xbdf197de	-0.117965445
1	0xbd0b9031	-0.03407306
2	0x3de9f0f3	0.114229105
3	0xbe0e0472	-0.13868883
4	0x3df10520	0.11768556
5	0x3d8fff9a	0.07031174
6	0x3dcc18a8	0.0996564
7	0x3d17925f	0.037004825
8	0x3c17e8e0	0.00927183
9	0x3e6c0b48	0.23051178
10	0x3da8fcb7	0.082513265
11	0xbe329688	-0.17440236
12	0x3dd2c77b	0.10291954
13	0xbdb94d6d	-0.09047971
14	0xbdea3fce	-0.11437951
15	0x3d907c43	0.07054951
16	0xbe162be4	-0.1466518
17	0x3e13f3af	0.14448427
18	0xbdcd294a	-0.10017641
19	0xbe254448	-0.16139328
20	0x3d93ff0d	0.072263815
21	0xbbed86ba	-0.0072487267
22	0x3e0bc756	0.1365026
23	0xbd5ea832	-0.054359622
24	0xbe71afce	-0.2360222
25	0x3e01fd73	0.1269434
26	0xbcf2dc20	-0.02964598
27	0xbdf85e85	-0.12127403
28	0x3e077995	0.13229974
29	0x3d3e128f	0.046404418
30	0xbe182ac2	-0.14860061
31	0x3e18f7a6	0.1493822
32	0x3e76be25	0.24095972
33	0x3d2e26df	0.04251754
34	0xbd2b9364	-0.04188861
35	0xbd2d4884	-0.042305484
36	0x3e06e8cf	0.13174747
37	0xbdf05485	-0.11734871
38	0xbd70af7e	-0.058761112
39	0x3d6cd356	0.057818733
40	0x3c7ea303	0.015541795
41	0xbdd79042	-0.10525562
42	0xbdb8521f	-0.09000038
43	0xbe50d826	-0.20394954
44	0xbe5f9137	-0.21832739
45	0x3e25496b	0.16141288
46	0x3daba23b	0.083805524
47	0x3d04e0f4	0.032441095
48	0x3c54640c	0.012963306
49	0x3d3c0cdd	0.045910705
50	0xbd5c7ebd	-0.053831805
51	0xbe5f355e	-0.21797702
52	0x3cc1edb3	0.023672914
53	0x3e23b232	0.15985945
54	0x3d31c756	0.043402992
55	0xbdb6ffee	-0.089355335
56	0xbda84308	-0.0821591
57	0x3e3c7808	0.18405163
58	0xbdd1a114	-0.10235801
59	0x3dac1453	0.08402314
60	0xbd83bced	-0.06432519
61	0x3cdb184d	0.026744986
62	0x3c99a809	0.018756883
63	0xbe06b168	-0.13153613
64	0x3c2d7dd0	0.010589078
65	0x3e5dfed6	0.21679243
66	0xbca725e4	-0.02040381
67	0xbdbd64cf	-0.09247743
68	0x3d893588	0.066996634
69	0x3e0fa7e1	0.14028884
70	0xbe2d3fd4	-0.1691888
71	0xbe1feaee	-0.15616962
72	0xbd8d67ac	-0.069045395
73	0x3cf1d209	0.029519098
74	0x3e178ff4	0.14801008
75	0xbcdf6a74	-0.02727244
76	0xbe5ff2dd	-0.21869989
77	0xbbf6fc3c	-0.007537393
78	0x3df0016c	0.11719021
79	0xbd8da0d9	-0.06915445
80	0x3e3df3fc	0.18550104
81	0xbe2c7cab	-0.16844432
82	0xbe39eb4d	-0.18156166
83	0xbdba484d	-0.090958215
84	0xbe119c53	-0.14219789
85	0x3e05c76c	0.13064355
86	0xbd81d74a	-0.06339891
87	0x3e29d85f	0.16586445
88	0x3d98d48b	0.07462414
89	0x3bc1eb7c	0.0059179645
90	0xbe276d41	-0.16350271
91	0x3dbc2653	0.09186997
92	0xbd8c5178	-0.068514764
93	0x3e011b24	0.1260801
94	0x3e19def7	0.1502646
95	0xbbaf0eec	-0.005342355
96	0x3d025162	0.031815894
97	0x3e351b0a	0.17686096
98	0x3dd036ee	0.10166727
99	0xbda6e1e8	-0.08148557
100	0xbe44c3b5	-0.19215281
101	0xbe68855b	-0.22707121
102	0x3e0a5e90	0.13512635
103	0xbe6512de	-0.22370479
104	0x3e0eaabb	0.13932316
105	0x3e105d22	0.14098027
106	0xbd8f48d8	-0.06996316
107	0x3e12c472	0.1433275
108	0x3e334152	0.17505386
109	0x3e065ea4	0.1312204
110	0x3e0e62a8	0.13904822
111	0x3dd05699	0.10172767
112	0x3d92103f	0.07132005
113	0xbe23c5df	-0.1599345
114	0xbe6fb839	-0.23410119
115	0xbe26af7b	-0.16277878
116	0xbdf4fdfb	-0.119625054
117	0x3e3de564	0.18544537
118	0xbde53e93	-0.11193576
119	0x3e269bfc	0.16270441
120	0xbdee8edb	-0.11648341
121	0xbceea2d7	-0.029130382
122	0xbd9da07b	-0.07696625
123	0x3e12628f	0.1429541
124	0x3e2db9c0	0.16965389
125	0x3cd784c2	0.026308421
126	0x3c884767	0.01663561
127	0xbd618e4c	-0.055067345
128	0xbe346575	-0.17616828
129	0xbe0fedd1	-0.14055564
130	0xbdf13339	-0.11777348
131	0x3da2b774	0.07945147
132	0xbd075398	-0.033038706
133	0x3d5b4a43	0.05353762
134	0xbe201d49	-0.15636171
135	0xbd2363bb	-0.039890032
136	0x3cffab61	0.03120965
137	0xbdb4485c	-0.08802864
138	0xbe735e44	-0.23766428
139	0xbda1ba5b	-0.078968726
140	0x3e1368bb	0.1439542
141	0x3da7198e	0.08159171
142	0x3e06418d	0.13110943
143	0x3c0b0706	0.008485561
144	0x3e05204a	0.13000599
145	0x3c5cf501	0.013486148
146	0xbd13317c	-0.035935864
147	0xbbf326be	-0.00742039
148	0x3e52cd7f	0.20586203
149	0x3e2c1006	0.16802987
150	0x3d49161d	0.049093354
151	0xbe4c02b7	-0.1992291
152	0x3e76d46e	0.24104473
153	0x3d7d150f	0.06178766
154	0x3e0dc433	0.13844375
155	0x3e345a0d	0.17612477
156	0x3d8084e8	0.0627535
157	0x3bb48d3c	0.0055100005
158	0x3d9cb452	0.07651581
159	0xbe4a6777	-0.19766031
160	0xbe415796	-0.18881068
161	0x3d823696	0.06358068
162	0xbdeb4c7d	-0.11489198
163	0x3da6a632	0.08137168
164	0x3cf6537e	0.030069109
165	0x3df2b230	0.11850393
166	0x3e4c2089	0.19934286
167	0x3daec8da	0.08534403
168	0xbd0d01e5	-0.034425635
169	0xbd9ad96d	-0.07561002
170	0xbe15bc61	-0.14622642
171	0xbd801363	-0.06253698
172	0x3e2a6540	0.16640186
173	0xbdc95f90	-0.0983268
174	0x3e0fbcb9	0.14036836
175	0x3d25cc37	0.040477958
176	0xbe2614d1	-0.16218878
177	0x3da97ac5	0.082753696
178	0xbd21f0e7	-0.039536383
179	0xbe888ff3	-0.26672325
180	0xbd47c40f	-0.04877096
181	0x3da4803d	0.08032272
182	0x3d963d48	0.07335907
183	0x3c29f5f5	0.010373582
184	0xbddd9365	-0.10819129
185	0xbc16f2c3	-0.009213152
186	0x3e44a012	0.19201687
187	0xbd084137	-0.03326532
188	0x3d1ac54e	0.03778582
189	0xbe4c705f	-0.19964741
190	0x3d65f384	0.056140438
191	0xbe4de576	-0.20107064
192	0x3d7f5c18	0.062343687
193	0x3cd7d43a	0.026346315
194	0x3dab87ba	0.08375497
195	0x3d57bbb8	0.052669257
196	0x3c82f002	0.015983585
197	0x3e0c4170	0.13696837
198	0xbdec4ccc	-0.11538085
199	0x3de948b8	0.11390823
200	0x3dd281d9	0.10278673
201	0x3bda721d	0.0066664354
202	0x3d7a6e0b	0.0611401
203	0x3d7b8ccc	0.06141357
204	0xbdc221ec	-0.09479126
205	0xbd849307	-0.06473356
206	0xbe227d50	-0.15868115
207	0xbce02c37	-0.027364833
208	0x3ce11b09	0.027478712
209	0x3e3047a6	0.17214832
210	0xbe0db7c7	-0.13839637
211	0x3ddde17d	0.10834024
212	0xbe4e00c9	-0.20117487
213	0x3dc1ff31	0.09472502
214	0x3e00deaf	0.12584947
215	0xbc87fdc2	-0.016600493
216	0x3da5ff6e	0.0810536
217	0x3e1b91bf	0.15192316
218	0xbdc7e3a8	-0.09760219
219	0x3d897476	0.06711666
220	0x3e12184e	0.14267084
221	0xbdd1d1be	-0.10245083
222	0xbd1a8eb3	-0.037733745
223	0xbe4c3d77	-0.19945322
224	0xbd6d833b	-0.05798648
225	0xbdefcd75	-0.1170911
226	0x3d4633d4	0.04838927
227	0x3c75a6bd	0.014993367
228	0x3e69e126	0.22839794
229	0x3e3b5a29	0.18296112
230	0xbd83a8a9	-0.06428654
231	0x3d2810d7	0.041031685
232	0xbe1dd627	-0.15413724
233	0xbe12b569	-0.14327015
234	0xbdd94835	-0.106094755
235	0x3d9519f8	0.07280344
236	0x3d801c07	0.06255346
237	0x3d33e314	0.04391773
238	0x3e0b9a93	0.13633184
239	0x3df2e5df	0.11860251
240	0xbe22657e	-0.15859029
241	0x3d402806	0.04691317
242	0xbe579b03	-0.21055226
243	0xbe898d0a	-0.26865417
244	0xbde5e124	-0.11224583
245	0x3e311e6f	0.17296766
246	0xbe155290	-0.14582276
247	0x3d9b718b	0.07590016
248	0x3e42dca9	0.19029488
249	0xbe032ff6	-0.12811264
250	0x3d588466	0.05286064
251	0xbdd744bf	-0.10511159
252	0x3d4545aa	0.04816214
253	0x3bc7bbba	0.006095377
254	0x3e3d02ec	0.18458146
255	0xbdd5def2	-0.10442914

pre_layer.0.bias f4 [28]
0	0xbe793781	-0.2433758
1	0xbe2a8dd7	-0.1665567
2	0x3d944b88	0.07240969
3	0x3d8b3150	0.06796515
4	0xbd186bcb	-0.037212174
5	0xbd1ac443	-0.037784826
6	0x3df6e585	0.12055496
7	0xbddc59e8	-0.10759336
8	0x3c73c226	0.014877832
9	0x3e106002	0.14099124
10	0x3c79e499	0.015252256
11	0x3e0de601	0.13857271
12	0x3d337bd5	0.043819267
13	0x3d447766	0.04796543
14	0x3e5ea0a6	0.2174097
15	0x3e29a49c	0.165667
16	0xbd88ff25	-0.0668929
17	0x3e1f0223	0.15528159
18	0x3e600bd1	0.21879508
19	0x3df2e89c	0.11860773
20	0xbcbfc51d	-0.02340942
21	0x3e1ea278	0.15491664
22	0xbdf11cf0	-0.117730975
23	0xbde8e4e2	-0.11371781
24	0xbd79cdb5	-0.060987193
25	0xbe48c137	-0.19604956
26	0xbe220ae3	-0.15824465
27	0xbe0c765d	-0.13717027

pre_layer.1.weight f4 [28]
0	0x3f4ffe3d	0.8124731
1	0x3f8a47d9	1.0803176
2	0x3f8e5147	1.1118554
3	0x3f93461e	1.1505773
4	0x3f842808	1.0324717
5	0x3f739e0a	0.95163023
6	0x3f739aef	0.95158285
7	0x3f6a09e3	0.91421336
8	0x3f96fb07	1.1795357
9	0x3f8f173d	1.1178967
10	0x3f9580e6	1.1679962
11	0x3f606421	0.87652785
12	0x3f8220f2	1.0166304
13	0x3f83e46b	1.0304083
14	0x3f8e4295	1.1114069
15	0x3f97a546	1.1847312
16	0x3f8a133e	1.0787122
17	0x3f8977a6	1.0739639
18	0x3f8d8192	1.1055167
19	0x3f8fe736	1.1242435
20	0x3f87c894	1.0608087
21	0x3f8ad62a	1.0846608
22	0x3f7ecf04	0.9953463
23	0x3f6d3c3c	0.92670035
24	0x3f6cd009	0.92504936
25	0x3f7baeee	0.98313797
26	0x3f93f1c0	1.1558151
27	0x3f7d81e7	0.9902634

pre_layer.1.bias f4 [28]
0	0xbd5d866d	-0.054083277
1	0xbcf549e9	-0.02994247
2	0xbcbeb3af	-0.02327904
3	0x3d1a20ee	0.03762906
4	0xbc763858	-0.015028082
5	0xbd826b3c	-0.063681096
6	0xbcc66ae3	-0.02422089
7	0xbd404ab2	-0.046946235
8	0x3d992e43	0.07479527
9	0xbc4ff8bc	-0.01269358
10	0x3e1c9970	0.15292907
11	0xbd217837	-0.039421286
12	0x3d1138ee	0.035454683
13	0x3db2478a	0.08705051
14	0x3e0565b4	0.13027078
15	0x3d6bb50f	0.057545718
16	0x3d800b83	0.06252196
17	0x3d454111	0.048157755
18	0x3dc19c62	0.09453656
19	0xbc92db0c	-0.017926715
20	0x3c9d1a95	0.019177714
21	0x3cac9e61	0.021071615
22	0x3cc0f559	0.02355449
23	0xbc926ab3	-0.017873144
24	0xbd5400ac	-0.051758453
25	0xbd4cfefc	-0.05004786
26	0x3d55019a	0.05200348
27	0xbb25a779	-0.0025276823

pre_layer.1.running_mean f4 [28]
0	0xbe547fe5	-0.20751913
1	0xbd9136be	-0.07090519
2	0x3db27976	0.08714573
3	0x3c687f08	0.014190443
4	0xbc5d6a7e	-0.013514159
5	0xbe69cb21	-0.22831394
6	0x3e0046a1	0.12526943
7	0xbdeb4aea	-0.11488898
8	0xbb1df6f6	-0.00241035
9	0x3d8ca47c	0.068673104
10	0xbc83b82a	-0.016079027
11	0x3e4b404a	0.19848743
12	0xbdc5a000	-0.09649658
13	0x3d165195	0.036698896
14	0x3e3e3abb	0.18577091
15	0x3e52fb10	0.20603585
16	0xbd61aeb4	-0.05509825
17	0x3e0e7e44	0.13915354
18	0x3ddebd2e	0.10875927
19	0x3e850db8	0.2598703
20	0x3d25eb4a	0.040507592
21	0xbce7155b	-0.028208425
22	0x3cd9fd21	0.02660996
23	0xbeaa98a4	-0.3331958
24	0xbdc7dd46	-0.097590014
25	0xbdeca694	-0.1155521
26	0xbe1fd54a	-0.15608707
27	0xbe0bd2a7	-0.13654576

pre_layer.1.running_var f4 [28]
0	0x3cd9dbe3	0.026594108
1	0x3da613aa	0.08109219
2	0x3d2fb6f1	0.042899076
3	0x3e5f68c4	0.21817309
4	0x3e0331f8	0.1281203
5	0x3f34b344	0.7058604
6	0x3df1a772	0.11799516
7	0x3d272109	0.04080299
8	0x3dfc0905	0.12306408
9	0x3e841367	0.25796053
10	0x3d631588	0.055440456
11	0x3d249140	0.040177584
12	0x3dc98b82	0.09841062
13	0x3db1f564	0.08689383
14	0x3e21465d	0.15749498
15	0x3ecc014a	0.39844733
16	0x3ea3191b	0.3185509
17	0x3e448e34	0.19194871
18	0x3d73f8e6	0.05956354
19	0x3f3d80b2	0.740245
20	0x3d508018	0.05090341
21	0x3e4b0915	0.19827683
22	0x3e2f1f5c	0.17101806
23	0x3f2773ea	0.65411246
24	0x3ea23d2e	0.316873
25	0x3f77769d	0.96665365
26	0x3e0d35fa	0.13790122
27	0x3daa316e	0.08310209

pre_layer.4.weight f4 [48, 28, 3, 3]
0	0x3b0f8d51	0.00219043
1	0x3d4b04ac	0.049565002
2	0x3d9c686b	0.07637104
3	0xbcde4899	-0.027134227
4	0xbd2d392f	-0.042290863
5	0xbc3113ed	-0.010807973
6	0x3c88fc17	0.016721768
7	0x3d39146a	0.045185484
8	0xbb12ac2e	-0.002238046
9	0xbd664901	-0.056221966
10	0xbd161034	-0.036636546
11	0xbd59941d	-0.053119767
12	0xbd38fb29	-0.0451614
13	0x3d21ece2	0.03953255
14	0xbd20c60c	-0.039251372
15	0xbe0b2004	-0.13586432
16	0xbabbdbf5	-0.001433252
17	0x3a0ed5ae	0.0005448711
18	0xbd9628fc	-0.07332036
19	0xbde2f391	-0.11081613
20	0xbd145d9d	-0.03622209
21	0xbd8ae042	-0.06781055
22	0xbbf704e9	-0.007538427
23	0xbd770ade	-0.060313098
24	0xbda81895	-0.08207814
25	0x3d3d1ab5	0.046168048
26	0xbcfa9964	-0.03059072
27	0xbd363044	-0.044479623
28	0x3c955d1e	0.018232878
29	0xbd851706	-0.06498532
30	0xbbf53a02	-0.0074837217
31	0x3c068b7f	0.008211969
32	0xbdb21c34	-0.086967856
33	0xbdc78d49	-0.09743745
34	0x3d2de96c	0.042458937
35	0xbd526abc	-0.05137132
36	0x3cdadde2	0.02671713
37	0xbd7c861e	-0.06165134
38	0xbdb6ed43	-0.08931973
39	0xbda9488c	-0.0826579
40	0xbdd099f7	-0.101856165
41	0xbd1d59ba	-0.038415648
42	0xbde2041e	-0.110359415
43	0xbd635057	-0.05549654
44	0xbccf7fb8	-0.025329456
45	0xbc32548a	-0.0108844135
46	0xbddb28be	-0.1070113
47	0x3cef736c	0.029229842
48	0x3d308ee4	0.04310502
49	0xbc96545d	-0.018350774
50	0x3cd88039	0.026428329
51	0xbd47f8ee	-0.048821382
52	0xbbe6f5c0	-0.0070483387
53	0x3da8b58a	0.08237751
54	0x3caf564c	0.021403454
55	0xbb104696	-0.0022014729
56	0x3b70a17d	0.0036717348
57	0x3ca397c1	0.019969823
58	0xbd15ca08	-0.036569625
59	0x3cacd37f	0.021096943
60	0x3cd1bb29	0.02560194
61	0xbb076406	-0.0020658984
62	0xbc7fdecf	-0.015617087
63	0xbcf3154f	-0.029673247
64	0xbda6605f	-0.0812385
65	0x3d82da93	0.06389346
66	0xbd39d40c	-0.04536824
67	0xbd815fb6	-0.063170835
68	0x3cb11093	0.021614349
69	0xbbd1d0f7	-0.0064030844
70	0xbda578e2	-0.08079697
71	0x3d1f2bde	0.038860194
72	0x3c5fc283	0.013657215
73	0xbca83ef4	-0.02053783
74	0xbb54a22f	-0.0032445302
75	0xbdcb200f	-0.09918224
76	0xbdb139cf	-0.08653604
77	0xbdb0582c	-0.086105675
78	0xbcfb29e1	-0.030659618
79	0xbdee2783	-0.1162863
80	0x3c6a35af	0.014295026
81	0x3cd3e182	0.025864366
82	0xbd0a8fd4	-0.03382857
83	0xbaca029f	-0.0015412158
84	0x3d83ba3f	0.06432008
85	0x3bc93ad0	0.006141044
86	0x3b2e2c5e	0.0026576738
87	0x3d3ddc4f	0.04635268
88	0xbbf5b36d	-0.007498196
89	0x3d410fce	0.047134213
90	0x3d80d7c9	0.06291158
91	0xbd3d287c	-0.046181187
92	0xbdc32288	-0.09528071
93	0xbcc8eaf5	-0.024526099
94	0xbd5d09b5	-0.053964335
95	0xbda2279e	-0.07917713
96	0xbc813dfd	-0.015776629
97	0xbba9fc08	-0.005187515
98	0xbe11ff81	-0.14257623
99	0x3ca18889	0.019718425
100	0xbd695f12	-0.05697543
101	0x3da5f5a9	0.081034966
102	0x3bc93a6b	0.006140997
103	0xbc4fc590	-0.01268138
104	0x3d870616	0.06592958
105	0xbd9e7038	-0.07736248
106	0xbdb0cc5a	-0.08632727
107	0x3c3068a7	0.010767139
108	0x3d454fc2	0.048171766
109	0xbd006fe2	-0.0313567
110	0xbd69e66c	-0.057104513
111	0x3a81e978	0.0009911498
112	0xbd861456	-0.065468475
113	0xbd768f0b	-0.06019501
114	0x3d6814c2	0.05666042
115	0xbd83d671	-0.06437386
116	0x3c1ba064	0.009498689
117	0xbd906991	-0.07051385
118	0xbd0d5147	-0.03450134
119	0xbe15d831	-0.14633252
120	0xbaf999ed	-0.0019043066
121	0xbd71e118	-0.059052557
122	0xbbe29ed5	-0.006915907
123	0xbd13c7a5	-0.036079068
124	0x3d7635e0	0.060109973
125	0xbd8045f5	-0.06263343
126	0xbc41f822	-0.011838945
127	0x3cd390ac	0.02582582
128	0xbd8e1d63	-0.06939199
129	0xbad72db1	-0.0016416815
130	0xb6ad581e	-5.16606e-06
131	0xbe0d2ef2	-0.1378744
132	0x3cfff86a	0.031246383
133	0xbd7bfca7	-0.061520245
134	0x3d51521b	0.051103693
135	0xbb473f3e	-0.0030402686
136	0xbc4291cc	-0.011875581
137	0x3ca3498e	0.019932535
138	0xbdbe693d	-0.09297416
139	0x3bc4e027	0.0060081664
140	0x3d568d0f	0.052380618
141	0xbbb6f6b4	-0.0055836085
142	0x3d39faaa	0.045405068
143	0x3d7f401a	0.06231699
144	0xbcd5ffff	-0.026123045
145	0xb8e78611	-0.0001103991
146	0x3d21776a	0.039420523
147	0x3cb8d25c	0.022561245
148	0x3d29c044	0.041443124
149	0x3d699d6e	0.057034902
150	0x3d5ff9f7	0.054681744
151	0xbd159d4f	-0.036526974
152	0x3d539f7e	0.051665775
153	0xbd89f59a	-0.06736298
154	0xbd89be18	-0.06725711
155	0xbda7d5e5	-0.08195094
156	0xbd76a3f8	-0.060214967
157	0xbd5f182a	-0.054466404
158	0xbdb2cdae	-0.087306365
159	0xbdec47de	-0.11537145
160	0x3b872913	0.0041247695
161	0xbd469293	-0.048479628
162	0x3cf4d624	0.029887266
163	0xbdb36d40	-0.08761072
164	0xbe729902	-0.2369118
165	0x3a26d47e	0.0006364061
166	0xbe0eae9f	-0.139338
167	0xbe334648	-0.17507279
168	0xbd5b72d7	-0.053576317
169	0x3c023bc3	0.007948819
170	0x3d0ffb22	0.03515161
171	0xbdb673e0	-0.0890882
172	0xbd553867	-0.052055743
173	0xbe0f62e6	-0.1400257
174	0x3c7a66ba	0.015283281
175	0x3c680f64	0.014163826
176	0xbd815527	-0.0631507
177	0x3ca160e7	0.019699527
178	0xbdc7d996	-0.09758298
179	0xbd55590e	-0.052086882
180	0xbcb9b034	-0.022667028
181	0xbc6d13bc	-0.014470037
182	0xbd4d68e5	-0.050148863
183	0xbde1d327	-0.11026602
184	0x3ccd012d	0.025024975
185	0xbcf0c066	-0.029388618
186	0xbdb1b142	-0.08676387
187	0xbca2b6dc	-0.019862585
188	0xbd1eaeff	-0.038741108
189	0x3d79c966	0.060983084
190	0xbdefb70a	-0.11704834
191	0xbdaf9d3e	-0.085749134
192	0xb90b6604	-0.00013294077
193	0x3c8eb12f	0.017418472
194	0xbde82c76	-0.11336605
195	0xbd049dfd	-0.032377232
196	0xbd15ec5f	-0.036602374
197	0x3da09523	0.078409456
198	0xbd23bced	-0.039975096
199	0x3c856b33	0.016286468
200	0x3d16c1f5	0.036806066
201	0x3c3908c5	0.011293595
202	0xbd8671ca	-0.06564672
203	0x3d1161bc	0.035493597
204	0xbd58edfc	-0.052961335
205	0x3c533f6d	0.01289354
206	0x3b481c41	0.0030534419
207	0xbc312144	-0.010811154
208	0xbd9babc3	-0.0760112
209	0xbb73c563	-0.003719651
210	0xbd444b88	-0.047923595
211	0xbd9b11d3	-0.07571759
212	0xbd83e1d5	-0.064395584
213	0xbc33b9d5	-0.010969599
214	0xbcef5fc5	-0.029220471
215	0xbced1419	-0.028940247
216	0x3d8b25d1	0.06794322
217	0xbd987bbb	-0.07445475
218	0xbd48daeb	-0.0490369
219	0x3d4e18cc	0.050316617
220	0xbd8f65d1	-0.07001842
221	0xbe1ba194	-0.15198356
222	0xbc5e6881	-0.01357472
223	0xbd961529	-0.07328255
224	0xbdff8aee	-0.124776706
225	0xbae1c9c3	-0.0017226267
226	0xbd8263da	-0.063667014
227	0xbdedf4d4	-0.11618963
228	0x3c04a2bd	0.00809544
229	0xbdc7bb1b	-0.097524844
230	0xbe1ce280	-0.15320778
231	0xbd882c62	-0.0664909
232	0xbd112b88	-0.035441905
233	0xbdcfd7e8	-0.10148603
234	0xbd15fc56	-0.0366176
235	0xbdc0c70b	-0.094129644
236	0xbd703553	-0.058644604
237	0x3cd39c0c	0.025831245
238	0xbd90436d	-0.070441104
239	0xbe04af67	-0.12957536
240	0xbdb195e4	-0.086711675
241	0xbdd55dbe	-0.104182705
242	0xbd924250	-0.07141554
243	0x3db132dc	0.08652279
244	0xbd05604d	-0.032562543
245	0x3dece7a0	0.115676165
246	0x3d70c423	0.0587808
247	0xbd105816	-0.035240255
248	0x3d6bc94b	0.057565015
249	0xbd3d05b9	-0.046148036
250	0x3ccf3e3c	0.02529823
251	0x3bcc18a8	0.006228525
252	0xbce3d0ee	-0.027809586
253	0x3c680ebc	0.014163669
254	0x3d3cf0a2	0.046127923
255	0x3d7824fa	0.06058214

pre_layer.4.bias f4 [48]
0	0x3d17189c	0.036888704
1	0x3d546f70	0.051864088
2	0xbda62a4d	-0.08113537
3	0xbd82c3a7	-0.06384974
4	0xbd0a4ec3	-0.03376652
5	0x3cc26eb7	0.023734434
6	0xbb8b2984	-0.0042468924
7	0xbd73a42f	-0.05948275
8	0xbd644a55	-0.05573495
9	0x3c134e7a	0.008990878
10	0xbcba454a	-0.022738118
11	0x3cd91968	0.026501372
12	0xbda0ca9d	-0.078511454
13	0x3cccce83	0.025000816
14	0xbde75740	-0.112959385
15	0xbc292bb3	-0.01032536
16	0xbd1087ce	-0.035285763
17	0x3c8d2325	0.017228672
18	0xbd8a9e97	-0.0676853
19	0xbd53ea92	-0.051737376
20	0x3b01fadc	0.0019833362
21	0x3b6cace6	0.0036113798
22	0xbd39361b	-0.045217615
23	0xbd827dfe	-0.06371687
24	0xbd4bfc8f	-0.049801406
25	0x3b572e38	0.0032833945
26	0xbd89f93e	-0.06736992
27	0xbd7af85a	-0.061272003
28	0xbd94c484	-0.07264045
29	0xbd23a8cc	-0.0399559
30	0xbd0645d9	-0.032781456
31	0xbd7a6094	-0.06112726
32	0xbd64420b	-0.055727046
33	0xbd7ad266	-0.061235808
34	0x3c2bc3fd	0.010483739
35	0x3c21f33c	0.009884652
36	0xbc74aaf0	-0.014933333
37	0xbc30f2d0	-0.0108000785
38	0xbc67011a	-0.014099384
39	0xbd6f4ac0	-0.058420897
40	0xbb3bef59	-0.0028676598
41	0xbd9ac91d	-0.075578906
42	0xbd29e2d9	-0.041476104
43	0x3bd27f89	0.006423895
44	0xbc568498	-0.013093136
45	0xbd6dea81	-0.05808497
46	0xbd2c646c	-0.042087957
47	0xbcd5f84e	-0.026119377

pre_layer.5.weight f4 [48]
0	0x3f8328f9	1.0246879
1	0x3f81bfb6	1.013663
2	0x3f787fc6	0.97069967
3	0x3f84f12c	1.03861
4	0x3f84b70f	1.0368365
5	0x3f84fc3a	1.0389473
6	0x3f65bad6	0.89738214
7	0x3f810053	1.0078224
8	0x3f828a1e	1.01984
9	0x3f865356	1.0494182
10	0x3f80eef8	1.0072927
11	0x3f8dc2e8	1.1075106
12	0x3f8ba784	1.0910497
13	0x3f803a9c	1.0017886
14	0x3f8ccb8f	1.0999621
15	0x3f7fe8fc	0.9996488
16	0x3f82c430	1.0216122
17	0x3f85555a	1.0416672
18	0x3f8a11c1	1.0786668
19	0x3f8e36fe	1.1110532
20	0x3f8237c0	1.0173264
21	0x3f7b5f8b	0.9819266
22	0x3f8ab38f	1.0836047
23	0x3f7e2bc1	0.99285513
24	0x3f801184	1.0005345
25	0x3f7de174	0.9917214
26	0x3f7b09a8	0.9806161
27	0x3f8451a3	1.0337414
28	0x3f8b5357	1.0884808
29	0x3f822439	1.0167304
30	0x3f7a3343	0.9773447
31	0x3f7ba8ae	0.9830426
32	0x3f8460c7	1.0342034
33	0x3f8ed135	1.1157595
34	0x3f7f5199	0.99733883
35	0x3f78d937	0.97206444
36	0x3f8bdbb5	1.0926424
37	0x3f7b95a7	0.98275226
38	0x3f82cf3a	1.021949
39	0x3f7e92a6	0.9944252
40	0x3f7df00b	0.991944
41	0x3f861a72	1.047682
42	0x3f7ed6bb	0.995464
43	0x3f7841ce	0.9697541
44	0x3f76e429	0.96441895
45	0x3f7b8fef	0.982665
46	0x3f841551	1.0319005
47	0x3f7f7d44	0.99800515

pre_layer.5.bias f4 [48]
0	0xbd091912	-0.033471175
1	0x3ce21dca	0.027602095
2	0xbd3153d1	-0.043292824
3	0x3d20853e	0.03918957
4	0xbc882d5d	-0.016623193
5	0xbbd4f97e	-0.0064994683
6	0xbe043d81	-0.12914087
7	0xbdd05a3b	-0.1017346
8	0x3bcf245c	0.006321473
9	0xbdb70856	-0.08937137
10	0xbcd7a816	-0.026325267
11	0xbd4820af	-0.048859295
12	0xbdc04491	-0.09388078
13	0xbcff7bfe	-0.031187054
14	0xbe071020	-0.13189745
15	0xbd8e9db5	-0.06963674
16	0xbd3ae52e	-0.04562872
17	0xbd301e25	-0.042997498
18	0xbd17682c	-0.03696458
19	0xbca5bd84	-0.02023197
20	0xbd1c84f6	-0.03821274
21	0xbcd21cf3	-0.02564857
22	0x3b99de97	0.004695724
23	0xbcbe0f32	-0.023200605
24	0xbcf6c8d3	-0.030125057
25	0xbc3898ba	-0.011266882
26	0xbd85dc16	-0.06536119
27	0x3bc513a3	0.006014304
28	0xbd38d852	-0.045128174
29	0xbd371656	-0.044699036
30	0xbd4912cb	-0.049090188
31	0xbdc2eca4	-0.09517792
32	0xbd45d451	-0.048298184
33	0xbdd41158	-0.103548706
34	0xbd6ee4f3	-0.05832381
35	0xbcc01d21	-0.02345139
36	0x3c584d4f	0.013202026
37	0xbc83088a	-0.015995283
38	0xbd0177ac	-0.03160827
39	0xbcc0f9cd	-0.023556614
40	0x3c68a76c	0.014200073
41	0xbdf861a3	-0.12127998
42	0xbd079287	-0.033098724
43	0x3c94a3ef	0.018144576
44	0xbd949a00	-0.07255936
45	0xbd4be621	-0.049780015
46	0xbd981981	-0.074267395
47	0xbd041497	-0.0322462

pre_layer.5.running_mean f4 [48]
0	0xc0b206d0	-5.5633316
1	0x4009dc80	2.1540833
2	0x3c204f01	0.009784461
3	0xbe6de7d5	-0.23232968
4	0xbfac551c	-1.3463473
5	0xbe5c5e65	-0.21520384
6	0xc0002b85	-2.0026562
7	0xbfe4e103	-1.7881168
8	0xbfb61354	-1.4224648
9	0xc01e5975	-2.47421
10	0xc09c9465	-4.8931146
11	0xc030b301	-2.7609255
12	0xc091cc50	-4.5561905
13	0xc026f349	-2.608599
14	0xc0552f27	-3.331003
15	0xc06ee692	-3.732823
16	0xc0064d00	-2.0984497
17	0xbfda68ae	-1.7063196
18	0xc0528648	-3.2894459
19	0xc06ac824	-3.6684656
20	0xc0a10490	-5.031807
21	0xc017361e	-2.362678
22	0xc0034369	-2.0509894
23	0xbf0a5412	-0.5403453
24	0xbfa665e8	-1.2999849
25	0xbf3911cb	-0.72292775
26	0xc0567298	-3.3507442
27	0xbea966d4	-0.33086264
28	0xc08b419b	-4.3517585
29	0x3ecd105f	0.40051553
30	0xc01652c3	-2.3488014
31	0xbf6e39a3	-0.93056697
32	0xbfd7c526	-1.685704
33	0xc0167873	-2.3511016
34	0xc034784e	-2.8198428
35	0xc013f724	-2.3119593
36	0xbf99e921	-1.202427
37	0x3ea11188	0.31458688
38	0xc04bcff5	-3.1845677
39	0xc01c75bb	-2.4446857
40	0xbf4903b4	-0.78521276
41	0xc0486baa	-3.1315713
42	0xc07b646d	-3.9280045
43	0xbf69d09a	-0.91333926
44	0xc106316c	-8.387066
45	0xc02189cb	-2.5240352
46	0xc0a3e664	-5.121874
47	0xc0204968	-2.5044804

pre_layer.5.running_var f4 [48]
0	0x4125f946	10.373358
1	0x40082c15	2.1276906
2	0x3fd5f96e	1.6716745
3	0x3fbd07fa	1.4768059
4	0x3fa7c7d9	1.3107864
5	0x4023a613	2.5570114
6	0x403e9619	2.9779112
7	0x40899591	4.2995076
8	0x3fb02cd2	1.3763678
9	0x40addd0a	5.4332323
10	0x41053079	8.324334
11	0x40875e16	4.230235
12	0x416afcc1	14.6867075
13	0x403c49a2	2.9419942
14	0x40786815	3.8813527
15	0x40a866ee	5.2625647
16	0x409ecd77	4.962581
17	0x404f705d	3.241233
18	0x40e50009	7.1562543
19	0x40e07576	7.0143385
20	0x41102163	9.008151
21	0x40250130	2.5781975
22	0x40112a7f	2.2682188
23	0x40149bc9	2.3220084
24	0x3fc01f82	1.5009615
25	0x400ff305	2.2492077
26	0x40a0552e	5.010398
27	0x406c1397	3.6886957
28	0x4128d972	10.553087
29	0x40659561	3.5872424
30	0x4081623d	4.043242
31	0x4000bede	2.0116496
32	0x4050891c	3.2583685
33	0x408256af	4.0730815
34	0x402a2cab	2.6589763
35	0x40130990	2.2974586
36	0x4018d45c	2.3879614
37	0x3f715a6f	0.94278616
38	0x40b7731f	5.732803
39	0x408c18b5	4.378016
40	0x3fc4f4d3	1.5387214
41	0x40b9b224	5.8029957
42	0x40b385af	5.610069
43	0x40027b15	2.0387623
44	0x41ace09b	21.60967
45	0x408b907b	4.361387
46	0x41067311	8.403092
47	0x40839302	4.1116953

pre_layer.8.weight f4 [64, 48, 2, 2]
0	0xbd3ecab5	-0.046580035
1	0x3da4c2a7	0.080449395
2	0x3d16e159	0.036836002
3	0x3e0a5611	0.13509394
4	0x3d77a1bb	0.060456973
5	0xbc9ec280	-0.019379854
6	0xbd5720c6	-0.05252149
7	0xbe33efc4	-0.17571932
8	0x3ccbd9a8	0.02488406
9	0x3cc27450	0.023737103
10	0xbdad5980	-0.084643364
11	0xbd159269	-0.03651658
12	0xbd852a3c	-0.06502196
13	0xbc944304	-0.018098362
14	0x3d967d82	0.073481575
15	0x3d39865c	0.04529415
16	0x3d65b711	0.05608279
17	0xbd55da89	-0.052210364
18	0x3e1a52a0	0.15070581
19	0xbdc4464d	-0.09583721
20	0xbdc435e3	-0.095805906
21	0xbdb1fc27	-0.08690672
22	0xbd895382	-0.06705381
23	0xbddc539f	-0.10758137
24	0x3d979ca3	0.07402923
25	0xbdae9d53	-0.08526101
26	0x3c639aa7	0.013891852
27	0xbcd53f55	-0.026031176
28	0xbdd67ea8	-0.104733765
29	0x3ce88a84	0.028386362
30	0x3d8832f7	0.06650346
31	0xbd9dc483	-0.07703497
32	0x3d7b4587	0.061345603
33	0x3d092df1	0.03349108
34	0xbd1d32d0	-0.038378537
35	0xbb4e2c2b	-0.0031459432
36	0xbd85f13d	-0.06540153
37	0x3c2ae27a	0.010429973
38	0x3db67d4d	0.08910618
39	0x3b8ce76d	0.004300049
40	0xbd01e141	-0.03170896
41	0x3be6f84b	0.007048642
42	0x3cd7b99d	0.026333624
43	0x3ddb3426	0.10703306
44	0xbc912847	-0.017719401
45	0x3d836116	0.06415002
46	0xbc380d2f	-0.011233612
47	0x3e0c0030	0.13671947
48	0x3d434ab4	0.047678664
49	0xbd04cd1a	-0.032422163
50	0xbde137c5	-0.10996965
51	0x3d4b80f8	0.04968354
52	0xbdb80bb3	-0.089866064
53	0x3d6f1979	0.058373902
54	0xbdd36dcc	-0.103236765
55	0x3c3223da	0.0108728055
56	0x3b76ee72	0.0037678746
57	0xbc9ce902	-0.019154076
58	0xbe439f14	-0.19103652
59	0xbc8dade5	-0.017294833
60	0xbcca5af4	-0.024701573
61	0xbbae3f63	-0.005317615
62	0x3d31a977	0.043374505
63	0x3d0778b7	0.033074107
64	0x3cd00a03	0.025395399
65	0x3d72d294	0.059282854
66	0xbd7e8a28	-0.062143475
67	0xbdbfc744	-0.09364179
68	0xbc985312	-0.018594299
69	0xbd9be445	-0.07611898
70	0x3d331122	0.04371751
71	0xbe1bd7b2	-0.15219
72	0x3bcfcf2d	0.006341836
73	0x3cf3a8e9	0.029743629
74	0xbd61270f	-0.05496889
75	0xbcfda64d	-0.030963087
76	0x3c9e476d	0.019321168
77	0xbc9c83d0	-0.019105822
78	0xbd1f72f3	-0.038927983
79	0x3d831cef	0.06402003
80	0xbd3b2358	-0.045688003
81	0xbc85b881	-0.01632333
82	0x3d92f557	0.07175701
83	0x3dd666d1	0.104688294
84	0xbd00a13c	-0.031403765
85	0x3d3d3d50	0.04620105
86	0xbe253e68	-0.16137087
87	0x3ddae61e	0.106884226
88	0xbc50ab03	-0.012736085
89	0x3d958cfd	0.07302282
90	0x3d81b01a	0.06332417
91	0x3dade2d4	0.0849053
92	0xbdc2dada	-0.09514399
93	0xbe08b12c	-0.13348836
94	0xbc08a4d8	-0.008340083
95	0xbd53433e	-0.0515778
96	0xbca31c3a	-0.01991092
97	0x3d9bb1dc	0.07602283
98	0x3d8c0c43	0.06838276
99	0xbdcbb890	-0.09947312
100	0xbd9cddb9	-0.07659478
101	0xbb574c8c	-0.0032852022
102	0xbd1bfe19	-0.038084123
103	0x3dab259a	0.08356781
104	0x3d89d1a5	0.0672944
105	0x3d975d06	0.0739079
106	0xbd8c5d09	-0.068536825
107	0x3d2e544e	0.042560868
108	0x3b6527c1	0.0034966322
109	0xbd8957cc	-0.06706199
110	0xbd5eadca	-0.054364957
111	0x3d08ef85	0.03343155
112	0x3d759e6a	0.05996553
113	0xbd89c105	-0.06726269
114	0x3c4fb001	0.01267624
115	0xbd02139d	-0.031756986
116	0x3dd05723	0.1017287
117	0x3cbc3139	0.02297269
118	0x3c032ce7	0.008006311
119	0xbd0e3ead	-0.03472774
120	0xbd05f4b6	-0.032704078
121	0xbd466e6b	-0.048445147
122	0x3dd1b393	0.10239329
123	0xbd11ad01	-0.03556538
124	0x3d54f3be	0.051990263
125	0x3b07b4ea	0.0020707198
126	0x3d0d2ce5	0.034466643
127	0xbdc8edfd	-0.09811018
128	0xbc197c06	-0.009367948
129	0xbdaea494	-0.085274845
130	0xbddd8aea	-0.108175114
131	0xbe050f44	-0.12994105
132	0xbd2c9c58	-0.04214129
133	0xbd98583c	-0.07438704
134	0xbd683680	-0.0566926
135	0xbdba2bc2	-0.090903774
136	0x3b8ff73e	0.0043934872
137	0x3cd59f90	0.026077062
138	0xbb7b0c96	-0.0038307062
139	0xbe2b2f54	-0.16717273
140	0x3c905fbc	0.017623775
141	0xbca22b2d	-0.019795978
142	0x3cd28a71	0.02570078
143	0x3d9a9ba0	0.07549214
144	0xbdf665d5	-0.12031142
145	0x3c68510e	0.014179481
146	0xbcc12235	-0.023575881
147	0xbc3e0a5e	-0.011599151
148	0xbc389f59	-0.01126846
149	0xbdd7a1a3	-0.10528877
150	0x3dedde21	0.11614633
151	0x3be3330c	0.0069335755
152	0xbaf83476	-0.0018936533
153	0xbd484158	-0.04889044
154	0x3bb395f5	0.0054805228
155	0x3d3e6217	0.046480265
156	0x3d0e7863	0.03478278
157	0xbb9540bb	-0.0045548356
158	0xbe163d34	-0.14671785
159	0xbe285e62	-0.16442254
160	0xb9b9efe9	-0.00035464697
161	0x3d13b37c	0.03605984
162	0x3d002c9d	0.031292547
163	0xbcd81b5f	-0.026380239
164	0x3d218c96	0.039440714
165	0xbd2e5090	-0.0425573
166	0x3d7764a3	0.06039871
167	0x3c2d3bc7	0.010573334
168	0x3c94f778	0.018184409
169	0xbd09a6b5	-0.03360625
170	0xbd8aace6	-0.06771259
171	0x3d4d0d65	0.050061602
172	0x3c700a02	0.014650824
173	0xbdb34a47	-0.08754402
174	0x3cc02da0	0.023459256
175	0xbbf8c01e	-0.0075912615
176	0xbd0e24cb	-0.034703057
177	0x3c825699	0.015910434
178	0x3d544a0d	0.051828433
179	0x3d2f8556	0.04285177
180	0xbcda695f	-0.026661573
181	0x3d230611	0.039800707
182	0x3c728d75	0.014804234
183	0x3dab0f94	0.08352581
184	0xbd7bb574	-0.061452344
185	0xbb84694a	-0.0040408717
186	0x3d81cc79	0.06337828
187	0x3e1b9701	0.15194322
188	0x3d42a463	0.047520053
189	0x3c2a215a	0.010383928
190	0xbddde4c6	-0.10834651
191	0xbd5dbc19	-0.054134462
192	0xbcb8cb85	-0.022557983
193	0xbbb91aa0	-0.005648926
194	0xbcbd2111	-0.023087056
195	0x3c8e9fb6	0.01741014
196	0xbccd8c7b	-0.0250914
197	0xbd93d59f	-0.07218479
198	0x3d76cd2e	0.06025427
199	0x3dac9034	0.08425942
200	0x3c8d980a	0.017284412
201	0x3d57c64a	0.052679338
202	0xbd081026	-0.033218525
203	0x3c5a9e78	0.013343446
204	0x3cba9bb4	0.022779323
205	0xbd4eefc9	-0.050521646
206	0xbde9b2bb	-0.11411043
207	0xbd83775a	-0.06419249
208	0x3d337a31	0.043817703
209	0xbd89c912	-0.06727804
210	0xbd712c9a	-0.058880426
211	0x3ae74829	0.0017645407
212	0xbbf3e199	-0.007442665
213	0x3bf401d4	0.007446507
214	0xbc908adb	-0.017644336
215	0xbce4e98e	-0.027943399
216	0xbc81bdcd	-0.015837574
217	0xbbb52f25	-0.0055293017
218	0x3d7de6db	0.06198774
219	0x3dbaa4a0	0.09113431
220	0xbd8ddfbb	-0.06927439
221	0x3d2fa572	0.04288239
222	0xbdaa65b6	-0.08320181
223	0xbd4823fc	-0.048862442
224	0x3d4f493a	0.050606944
225	0x3c0405dd	0.008058039
226	0x3c2d2eed	0.01057027
227	0x3d2decb6	0.042462073
228	0xbdaad6ce	-0.08341752
229	0x3d2cfeb5	0.042235095
230	0x3dbda7d4	0.09260526
231	0xbce14931	-0.02750072
232	0x3d431829	0.047630463
233	0xbd1592e6	-0.036517046
234	0xbc937ed6	-0.018004816
235	0x3d848e2f	0.06472432
236	0x3d73ad21	0.05949128
237	0x3c10d3c1	0.008839549
238	0xbdd4ed0e	-0.10396777
239	0xbd381a68	-0.044947058
240	0x3dcd637e	0.10028742
241	0xbd1b8fc8	-0.037978917
242	0x3df141e2	0.11780144
243	0xbbaac217	-0.0052111256
244	0x3da63129	0.08114845
245	0x3dcf4cb5	0.101220526
246	0x3c911b12	0.017713103
247	0xbc58e450	-0.013238028
248	0x3cbf5fee	0.023361173
249	0xbd2dac13	-0.04240043
250	0xbaab90fa	-0.0013089471
251	0xbd7a7c1c	-0.061153516
252	0x3d986f24	0.074430734
253	0x3daaa42f	0.08332097
254	0xbcb3609a	-0.02189665
255	0x3d1c0aa2	0.038096078

pre_layer.8.bias f4 [64]
0	0xbd88fe8c	-0.06689176
1	0x3c463de9	0.0120997215
2	0xbd06bc4b	-0.032894414
3	0x3cff1910	0.03113988
4	0xbd1887c3	-0.037238847
5	0xbcc5c0c7	-0.024139775
6	0xbdc4d440	-0.09610796
7	0x3e1b951d	0.15193601
8	0x3da38e4a	0.07986124
9	0xbd031369	-0.032000933
10	0x3dcad0d4	0.09903112
11	0x3c1ca0fe	0.009559868
12	0x3d7f7c17	0.0623742
13	0xbc134f3a	-0.008991057
14	0x3c0c359f	0.008557706
15	0x3d7eaf69	0.062179003
16	0xbd787640	-0.060659647
17	0xbd2f8038	-0.04284689
18	0x3d0c7ba4	0.0342976
19	0x3cc2f4d6	0.023798387
20	0x3d52f596	0.05150374
21	0xbc2054c5	-0.009785836
22	0xbd2432f0	-0.04008764
23	0x3d063fa0	0.03277552
24	0xbc338dac	-0.01095907
25	0x3c4854f3	0.012227285
26	0x3d5f1a5c	0.054468498
27	0xbc01a6c5	-0.007913296
28	0xbde3bdd4	-0.11120191
29	0xbd897c4c	-0.06713161
30	0xbd6191f3	-0.05507083
31	0xbcb6390d	-0.022244
32	0xbd624c68	-0.055248648
33	0xbcc6a49b	-0.024248412
34	0x3d182d73	0.03715272
35	0x3c9fe187	0.01951672
36	0x3d73000f	0.059326228
37	0xbd197756	-0.037467323
38	0x3c672620	0.014108211
39	0x3c9518a9	0.018200235
40	0xbd35ab40	-0.04435277
41	0xbc8474c0	-0.016168952
42	0xbcd0a555	-0.025469461
43	0xbd85b791	-0.06529153
44	0x3c8feb76	0.017568331
45	0xbd9405d4	-0.07227674
46	0xbdbbbcd2	-0.09166874
47	0x3d2d9f78	0.04238841
48	0x3cb7c193	0.02243117
49	0x3d0d6976	0.034524404
50	0xbd5495e1	-0.05190075
51	0x3ca666c6	0.020312678
52	0x3ca77e7f	0.02044606
53	0xbccf74f0	-0.025324315
54	0xbd93a95d	-0.07210038
55	0xbb854de0	-0.0040681213
56	0x3905679c	0.00012722466
57	0xbd5a9cb0	-0.053372085
58	0x3c6e8850	0.014558867
59	0x3ca9719a	0.020684052
60	0xbdac67e8	-0.08418256
61	0xbc983c5c	-0.01858347
62	0xbbd81e77	-0.0065954286
63	0x3d739339	0.059466574

pre_layer.9.weight f4 [64]
0	0x3f8aacf2	1.0834029
1	0x3f8171e7	1.0112885
2	0x3f803844	1.0017171
3	0x3f7def33	0.99193114
4	0x3f788080	0.97071075
5	0x3f835122	1.0259135
6	0x3f676d91	0.9040156
7	0x3f8901fd	1.0703732
8	0x3f8b02ae	1.0860193
9	0x3f89c8ae	1.0764368
10	0x3f860208	1.046937
11	0x3f7f2872	0.9967109
12	0x3f89e66b	1.0773443
13	0x3f896d10	1.0736408
14	0x3f75b0a8	0.9597268
15	0x3f751ab9	0.957439
16	0x3f8321f8	1.0244741
17	0x3f8b0d31	1.0863401
18	0x3f7d72b9	0.9900318
19	0x3f7aba4e	0.9794053
20	0x3f7af24e	0.9802598
21	0x3f70cbfa	0.94061244
22	0x3f69e25b	0.91361016
23	0x3f86746f	1.0504283
24	0x3f7ed8ba	0.9954945
25	0x3f7afed7	0.98045105
26	0x3f8377e6	1.0270965
27	0x3f8a2711	1.0793172
28	0x3f7766ac	0.9664104
29	0x3f82d338	1.0220709
30	0x3f89cede	1.0766256
31	0x3f7f7d36	0.9980043
32	0x3f8229a5	1.0168959
33	0x3f6ffe3c	0.93747306
34	0x3f88382f	1.0642146
35	0x3f9c7b11	1.2225057
36	0x3f8d463a	1.1037056
37	0x3f766231	0.9624358
38	0x3f80ccf7	1.006255
39	0x3f8330a5	1.024922
40	0x3f83c5a7	1.0294694
41	0x3f850803	1.039307
42	0x3f866d9b	1.0502199
43	0x3f79aed4	0.9753239
44	0x3f804b65	1.0023009
45	0x3f92f9e4	1.148251
46	0x3f718731	0.9434691
47	0x3f85cf16	1.0453823
48	0x3f8c86a2	1.0978587
49	0x3f7c4a52	0.98550904
50	0x3f7f4843	0.9971964
51	0x3f7d99bb	0.990627
52	0x3f7f7c04	0.9979861
53	0x3f884951	1.0647374
54	0x3f7ef024	0.99585176
55	0x3f86e6e5	1.0539213
56	0x3f7b1975	0.9808572
57	0x3f8195c0	1.0123825
58	0x3f7fb566	0.9988617
59	0x3f7a73b8	0.9783282
60	0x3f8b41de	1.0879476
61	0x3f7d32f8	0.989059
62	0x3f85519d	1.0415531
63	0x3f7e67e6	0.99377286

pre_layer.9.bias f4 [64]
0	0xbd286518	-0.041112036
1	0xbbcf79df	-0.006331667
2	0x3d439346	0.047747873
3	0x3cb63817	0.022243543
4	0xbcd13d59	-0.025541948
5	0x3c73bbc5	0.014876311
6	0xbdae949c	-0.08524439
7	0x3e13f3c1	0.14448453
8	0x3e0d4461	0.13795616
9	0x3d600985	0.05469658
10	0x3caa757b	0.020807972
11	0xbcaadd31	-0.020857425
12	0x3e19740c	0.14985675
13	0x3d80d2c7	0.062902026
14	0xbc0e9c61	-0.008704276
15	0x3c7c9488	0.015416272
16	0xbc2e9abc	-0.010657009
17	0x3d646046	0.055755876
18	0x39f71cc0	0.00047132932
19	0xbb44cd69	-0.003002966
20	0x3c0bcd30	0.008532807
21	0xbd6e2016	-0.05813607
22	0xbdf874e6	-0.121316716
23	0x3bf47ab9	0.0074609187
24	0x3c145501	0.00905347
25	0x3c16fc5f	0.009215443
26	0xbadee627	-0.0017005847
27	0x3cb25df5	0.021773318
28	0xbd3c371d	-0.045950998
29	0xbbb5c311	-0.0055469354
30	0xbd531179	-0.051530335
31	0x3a961f3f	0.0011453404
32	0xbbb98542	-0.0056616375
33	0xbc03f8b0	-0.008054897
34	0xbc50174c	-0.012700867
35	0xb8e8e3c7	-0.00011105049
36	0xbcd5375d	-0.026027376
37	0xbc4d0b75	-0.012514939
38	0x3c98360d	0.01858046
39	0xbd278b4e	-0.040904336
40	0xbca30c5a	-0.01990335
41	0xbcbf42fb	-0.023347368
42	0xbce21c2b	-0.027601322
43	0xbd299d71	-0.041409913
44	0x3c3ddb8e	0.01158799
45	0xbd4cbe72	-0.04998631
46	0xbd180ce2	-0.03712166
47	0x3ddc1229	0.10745651
48	0x3cbcb61f	0.02303606
49	0xbcf533e4	-0.02993197
50	0x3b73c9cb	0.0037199135
51	0xbc6fa523	-0.014626774
52	0xbb76eb53	-0.0037676885
53	0x3dea1a6a	0.11430819
54	0xbd919ddf	-0.0711019
55	0xbccbe697	-0.024890227
56	0x3cbb7f1b	0.022887757
57	0xb9e30293	-0.00043298732
58	0xbd107cf7	-0.035275426
59	0xbb0928e5	-0.0020928916
60	0xbca62e3c	-0.020285718
61	0x3c3e3ace	0.0116107
62	0x3a9e3ef3	0.0012073204
63	0xbc0d6368	-0.008629657

pre_layer.9.running_mean f4 [64]
0	0xbf9c762d	-1.2223564
1	0x3f291afd	0.66056806
2	0xbfa7ca11	-1.3108541
3	0xbf3b8692	-0.73252213
4	0xc03b7fd5	-2.9296772
5	0x3e0cba28	0.13742888
6	0xc0b87158	-5.763836
7	0x40713513	3.7688644
8	0x40038270	2.0548363
9	0xc0053654	-2.081441
10	0x404bfdbc	3.1873617
11	0xbf432828	-0.7623315
12	0x3fed67c4	1.8547292
13	0x3fb0489a	1.3772156
14	0xbfad7330	-1.3550777
15	0x3eeb98d2	0.4601503
16	0x3f7b161e	0.98080623
17	0xbf27c98d	-0.6554192
18	0x3fb879c6	1.4412162
19	0x3fa735f0	1.3063335
20	0xbfe1bcca	-1.7635739
21	0xbfc7537b	-1.5572351
22	0xc0532b6f	-3.299526
23	0x3fba93e5	1.4576384
24	0x3e851d6e	0.25999016
25	0xbeb1021d	-0.34571925
26	0x3fc2767b	1.5192407
27	0x3f341960	0.7035122
28	0xc063f2f7	-3.5617044
29	0xbe8d36f8	-0.27581
30	0xbfd13924	-1.6345563
31	0xc0075aea	-2.114924
32	0xbe94da80	-0.29072952
33	0xc062aede	-3.541923
34	0xbf5e8259	-0.86917645
35	0x3f4fdd02	0.81196606
36	0xbec4f809	-0.38470486
37	0xbfada010	-1.3564472
38	0xbf676f20	-0.9040394
39	0xc0212f0e	-2.518497
40	0xbf60e69e	-0.87851894
41	0xbfc776ff	-1.558319
42	0x3edbae3f	0.42906377
43	0xbe9b2029	-0.30297974
44	0x40695131	3.6455805
45	0xbff97e01	-1.9491578
46	0xc099607f	-4.7930293
47	0x404392a4	3.0558252
48	0x3fac9e18	1.3485746
49	0xbfc309cf	-1.5237368
50	0xbf4300f2	-0.7617332
51	0xbf2a2e1f	-0.66476625
52	0xc020ddc6	-2.513536
53	0x3ed90023	0.42382917
54	0xc0256db4	-2.5848207
55	0xbf7526d8	-0.95762396
56	0xbff8945f	-1.9420279
57	0x3c9e0703	0.019290453
58	0xc07270df	-3.788139
59	0xbfccf2bf	-1.601158
60	0xbfe16bdb	-1.761104
61	0xbec1ab0c	-0.3782581
62	0xbf47ac80	-0.7799759
63	0x3e020cc0	0.12700176

pre_layer.9.running_var f4 [64]
0	0x3f3c1785	0.7347339
1	0x3f11af12	0.5690776
2	0x3eabd61b	0.33561787
3	0x3f6b8d86	0.9201282
4	0x3fc3e8e5	1.5305449
5	0x3f05b704	0.52232385
6	0x3fd9e183	1.7021946
7	0x3f5fcb66	0.87419736
8	0x3f4cfa4e	0.80069435
9	0x3efb46d5	0.49077478
10	0x3f534e93	0.8254177
11	0x3ecd0b01	0.40047458
12	0x3f49fd75	0.7890237
13	0x3f21266a	0.6294924
14	0x3f097ae3	0.53703135
15	0x3ed7314b	0.42029795
16	0x3f0c47e6	0.5479721
17	0x3eadf7fa	0.33978254
18	0x3f0bd854	0.54626966
19	0x3efc6eac	0.49303186
20	0x3f45166b	0.7698733
21	0x3f16add3	0.58858985
22	0x3f5cff5a	0.86327136
23	0x3f0e2c6f	0.5553655
24	0x3ef1c5bb	0.4722117
25	0x3e958292	0.2920118
26	0x3f1bd8cf	0.608777
27	0x3f5a762b	0.8533656
28	0x3f3f4b2a	0.74724066
29	0x3f0f03cf	0.55865186
30	0x3f6cf706	0.9256443
31	0x3ecfc6a7	0.40581247
32	0x3ef1e514	0.47245085
33	0x3f400d3d	0.750202
34	0x3f40ca30	0.75308514
35	0x3fb2dcba	1.397361
36	0x3faad53d	1.3346325
37	0x3ed680cb	0.41895136
38	0x3ea57421	0.32315162
39	0x3f3860c9	0.7202268
40	0x3f62a37a	0.88530695
41	0x3f0898f6	0.533584
42	0x3f3b50eb	0.73170346
43	0x3f13ba88	0.577065
44	0x3f2f1616	0.68393075
45	0x3f8f6ed2	1.1205695
46	0x3fac1712	1.344454
47	0x3f88db90	1.0692005
48	0x3f666d4f	0.9001054
49	0x3f3d1307	0.7385716
50	0x3ef75f37	0.4831483
51	0x3f071c11	0.527772
52	0x3f16e620	0.5894489
53	0x3e98adda	0.29820138
54	0x3f6a9029	0.9162622
55	0x3f246367	0.64214176
56	0x3f2a3ace	0.6649598
57	0x3f2c4914	0.6729901
58	0x3fe9fb82	1.8279879
59	0x3ea1bab3	0.31587753
60	0x3f3e2bb3	0.7428543
61	0x3ed90216	0.42384404
62	0x3eedb003	0.4642335
63	0x3f11ee92	0.57004654

fc.weight f4 [128, 576]
0	0xbbfe92eb	-0.007768979
1	0xbc153f4e	-0.009109331
2	0x3c70f596	0.01470699
3	0xbd754d37	-0.05988809
4	0xbc95a68a	-0.018267889
5	0xbba3fd60	-0.00500457
6	0x3ba9ee61	0.0051858877
7	0x3c9ce1c3	0.01915062
8	0xbc78386a	-0.015150169
9	0x3c8d86e0	0.017276227
10	0xbc7e05f0	-0.015504345
11	0xbd1ffd1b	-0.03905974
12	0x3d16d61b	0.03682528
13	0xbc9ed8ce	-0.01939049
14	0x3caf4038	0.021392927
15	0x3d06c123	0.032899033
16	0xbc525184	-0.012836818
17	0xbc077e9c	-0.008269932
18	0xbcd3b580	-0.025843382
19	0xbd5fec32	-0.054668613
20	0xbcab17fe	-0.020885464
21	0x3ae52fbc	0.001748554
22	0x3c6f5dac	0.014609735
23	0x3c94dce6	0.018171739
24	0xbc491757	-0.012273631
25	0xbc8bb763	-0.017055219
26	0x3ce1ecff	0.027578829
27	0xbcdca8d6	-0.026935976
28	0x3d3136a5	0.043265004
29	0x3d686919	0.056740854
30	0xbd38220c	-0.044954345
31	0xbaffa6b7	-0.0019504641
32	0xbd00a789	-0.031409774
33	0xbcfba28c	-0.030717157
34	0xbd0b22d2	-0.033968754
35	0xbd8d5c9d	-0.0690243
36	0xbc5ad8e7	-0.013357378
37	0xbc915938	-0.017742738
38	0x3bbd624d	0.0057795406
39	0xbbf38d48	-0.0074326135
40	0x3c50b019	0.012737297
41	0xbc908a2e	-0.017644014
42	0x3bc3f8bb	0.0059805787
43	0xbd280f19	-0.041030023
44	0xbd06bd73	-0.032895517
45	0xbd0384c9	-0.032109056
46	0xbd57b85c	-0.052666053
47	0xbcfee404	-0.031114586
48	0xbb2427d9	-0.0025048165
49	0x3d90c229	0.07068283
50	0xbd9acc74	-0.075585276
51	0x3b8a165b	0.0042140908
52	0x3d83957b	0.064249955
53	0xbda56ed0	-0.080777764
54	0xbb282fc4	-0.0025663236
55	0x3ca9004c	0.020630024
56	0x3b34095a	0.0027471394
57	0x3c496436	0.012291959
58	0x3c57dfee	0.013175948
59	0x3c83e509	0.016100423
60	0xbd1c5eff	-0.038176533
61	0x3c16c410	0.009202018
62	0x3cca5bbe	0.02470195
63	0xbd48c6c1	-0.04901767
64	0x3bf6b251	0.007528581
65	0x3bb7e26e	0.0056117093
66	0xbc89b4ee	-0.016809907
67	0x3c188ce7	0.0093109375
68	0xbce20f9b	-0.027595332
69	0x3c824ddd	0.015906269
70	0x3cfbbd76	0.03072999
71	0x3bfd35fc	0.0077273827
72	0x3d09e355	0.033664066
73	0xbd0cf4a3	-0.03441299
74	0x3c42a6a2	0.011880549
75	0x3c392d5d	0.011302319
76	0x3c515af0	0.012778029
77	0x3d4e2528	0.050328404
78	0xbb29defb	-0.002592026
79	0x3b37a67b	0.0028022814
80	0xbd71acd6	-0.05900272
81	0xbd00458d	-0.03131633
82	0x3d19c1ba	0.037538268
83	0xbc383499	-0.011243009
84	0xbd4bbe54	-0.049742058
85	0x3d722a85	0.05912258
86	0x3d1af385	0.037829895
87	0x3c19721c	0.009365585
88	0x3d018a4e	0.03162604
89	0x3c90d65a	0.017680336
90	0xbd33958c	-0.04384379
91	0x3bdb1335	0.0066856393
92	0x3c6c5a5b	0.014425839
93	0xbcd8cd04	-0.026464947
94	0xbc2515eb	-0.010076026
95	0xbc7f8ac5	-0.01559705
96	0xbd4da6b8	-0.050207824
97	0xbbb78ffc	-0.005601881
98	0xbd0af156	-0.033921562
99	0x3c999178	0.018746123
100	0xbcfc9a7e	-0.030835386
101	0xbc818bc8	-0.015813723
102	0x3c9f5fbe	0.019454833
103	0xbcfed81d	-0.03110891
104	0xbddddd9a	-0.10833283
105	0xbcdfc24a	-0.027314324
106	0x3c27ccc8	0.010241695
107	0xbda3663c	-0.07978484
108	0x3ceddf4e	0.029037144
109	0xbb934bde	-0.004495128
110	0xbd2403a2	-0.040042527
111	0xbd08b023	-0.033371102
112	0xbc870334	-0.01648102
113	0xbd4c5ce4	-0.049893275
114	0xbca426c8	-0.020038024
115	0xbc946bdb	-0.018117836
116	0xbd50bc7b	-0.050961
117	0x3ca61608	0.020274177
118	0xbbb01aab	-0.005374273
119	0x3b3cc54e	0.0028804126
120	0x3d83e661	0.06440426
121	0xbc80df6b	-0.015731534
122	0x3c880647	0.016604556
123	0xbd86b8cc	-0.06578216
124	0x3d8b25a2	0.06794287
125	0xbd0cdb96	-0.0343891
126	0x3cd9ffbd	0.026611203
127	0x3c1fad10	0.009745851
128	0x3d09ca7c	0.03364037
129	0x3d52f93d	0.051507223
130	0xbb90e2a3	-0.0044215485
131	0x3cf9f4c2	0.030512217
132	0xbd7d4a10	-0.06183821
133	0xbc95ba18	-0.018277213
134	0xbd577628	-0.052602917
135	0xbcce8c3a	-0.02521335
136	0xbc1d2db8	-0.00959342
137	0xbc31439d	-0.010819343
138	0xb923d617	-0.00015624646
139	0xbcff2c29	-0.031148987
140	0xbc8a4d95	-0.016882697
141	0x3cfce6a7	0.030871702
142	0x3cad8a06	0.021183979
143	0xbd10c038	-0.035339564
144	0x3d6f72b2	0.05845899
145	0x3c66664c	0.014062475
146	0xbbfef4d7	-0.007780652
147	0xbd04f018	-0.032455534
148	0x3d536fbf	0.05162024
149	0xbd14f1bc	-0.03636335
150	0xbd80a28a	-0.06281002
151	0x3d153ca2	0.036434777
152	0x3ccdcb8c	0.025121473
153	0x3cd209f2	0.025639508
154	0xb9bc5c7f	-0.0003592707
155	0xbd19286a	-0.037392057
156	0xbd4b8e4f	-0.049696263
157	0xbd695616	-0.056966864
158	0x3cc7d8cb	0.024395367
159	0xbd489a4a	-0.048975267
160	0x3c3af863	0.011411759
161	0xbc9d6a64	-0.01921577
162	0xbca845da	-0.02054112
163	0xbca2e910	-0.019886523
164	0xbd0e867a	-0.034796216
165	0xbd3cfabe	-0.046137564
166	0xbd5b40f8	-0.053528756
167	0xbc0f7da1	-0.00875798
168	0xbcb93e86	-0.022612821
169	0x3c5e0b39	0.01355248
170	0x3baff84b	0.005370175
171	0x3c12e563	0.008965823
172	0x3ceed884	0.029155977
173	0x3b337feb	0.0027389477
174	0x3cc75b48	0.024335518
175	0x3b9a3504	0.004706027
176	0xbd6c4fe8	-0.057693392
177	0xbd7ee4b0	-0.062229812
178	0x3da45506	0.080240294
179	0xbcdfc177	-0.02731393
180	0x3c0bbc1f	0.008528738
181	0xbc93b580	-0.018030882
182	0xbc0ab554	-0.008466084
183	0xbd2fcf37	-0.042922225
184	0xbd4e1a80	-0.05031824
185	0xba9b1ebd	-0.0011834722
186	0xbd59d3b7	-0.053180423
187	0xbd449260	-0.047991157
188	0xbd0d0665	-0.034429926
189	0xbcc8a218	-0.024491355
190	0x3c3d69d2	0.011560874
191	0xbcd695f5	-0.026194552
192	0x3cfe2d4a	0.031027455
193	0xbcf7c05a	-0.030243088
194	0xbd32de03	-0.043668758
195	0xbc1e1558	-0.009648643
196	0x3d68ef70	0.05686897
197	0x3c83aba8	0.016073063
198	0x3aabd323	0.0013109188
199	0xbd28f48c	-0.041248843
200	0xbd075c67	-0.033047106
201	0x3aecdb08	0.0018070647
202	0x3c8aad88	0.01692845
203	0x3b6974d3	0.0035622611
204	0x3c9277ac	0.01787933
205	0xbd20ffee	-0.039306574
206	0xbc5a2f60	-0.013316959
207	0xbb85b25b	-0.0040800995
208	0x3c9e94ba	0.019358028
209	0xbc4fe5be	-0.012689052
210	0xbcced0c7	-0.025246037
211	0x3ba9caa2	0.0051816264
212	0xbb8f6882	-0.004376472
213	0x3bf159cd	0.0073654414
214	0x3cbbdbae	0.0229319
215	0xbda638b5	-0.08116285
216	0xbd09b121	-0.03361619
217	0xbb3e21c6	-0.002901183
218	0xbd326321	-0.043551568
219	0xbd5ac705	-0.053412456
220	0x3d36a49b	0.044590574
221	0xb91a87c9	-0.00014737168
222	0xbcd23280	-0.025658846
223	0x3d144c9b	0.03620587
224	0xbdcfd71e	-0.10148452
225	0xbd2ae8f0	-0.041726053
226	0xbd0872d5	-0.033312637
227	0xbd128351	-0.035769764
228	0x3b3136f3	0.002704081
229	0xbc74bf1a	-0.01493814
230	0xbd1a14c0	-0.037617445
231	0xbdb2e20d	-0.08734522
232	0xbc76a617	-0.015054247
233	0xbd800f4f	-0.0625292
234	0xbbfdd707	-0.0077465805
235	0xbc8f003e	-0.01745617
236	0x3c104c04	0.008807186
237	0x3d646595	0.05576094
238	0x3cab0086	0.020874273
239	0x3cd50f8b	0.026008388
240	0x3c7010a8	0.014652409
241	0x3d283269	0.0410637
242	0xbd2356b4	-0.03987761
243	0x3d0e9e97	0.03481921
244	0xbb5ca0b1	-0.0033665115
245	0x3d18d3e6	0.037311457
246	0xbbb3ffd1	-0.005493142
247	0xbb554cdc	-0.0032547032
248	0x3bb624d8	0.0055585913
249	0xbcb7e3dc	-0.022447519
250	0xbd18877f	-0.037238594
251	0xbcdbc5c4	-0.0268277
252	0xbd41dad7	-0.047327843
253	0x3c94abac	0.018148266
254	0xbcffb29a	-0.031213094
255	0xbd806199	-0.06268615

fc.bias f4 [128]
0	0xbdcec576	-0.100962564
1	0x3cbaa261	0.022782506
2	0x3d44a4bb	0.04800866
3	0xbd5b5f96	-0.053557955
4	0x3cef304b	0.029197833
5	0xbd0818b2	-0.033226676
6	0x3d6ce65e	0.057836883
7	0xbc84904a	-0.016182084
8	0xbd370082	-0.04467822
9	0x3e03ae1b	0.12859385
10	0xbdab016e	-0.08349882
11	0x3b991556	0.004671733
12	0x3d25d587	0.04048684
13	0xbd27c0b5	-0.040955264
14	0x3c3b755c	0.011441555
15	0xbdeaaf1a	-0.11459179
16	0x3d1e3693	0.038626265
17	0x3d2d6bcc	0.04233913
18	0xbcdfba8b	-0.02731063
19	0x3d96432b	0.0733703
20	0xbbe56b93	-0.0070013492
21	0x3d966304	0.073431045
22	0x3cef43b9	0.029207097
23	0x3d5af983	0.05346061
24	0x3d3c74cc	0.046009824
25	0x3d78ee51	0.06077415
26	0x3d9ebad6	0.0775048
27	0x3dafcb17	0.08583658
28	0x3d6c2186	0.057649158
29	0xbc6b1259	-0.014347636
30	0xbcaf8e17	-0.021430058
31	0xbd8ecf33	-0.06973114
32	0x3c7fc60e	0.015611185
33	0x3af9b777	0.0019051869
34	0x3d773ddf	0.06036174
35	0xbcf2a586	-0.029619943
36	0xbca288cf	-0.019840626
37	0xbc888cf6	-0.016668778
38	0x3dac77fd	0.084213234
39	0xbd0d5516	-0.034504972
40	0xbd886b9b	-0.06661149
41	0x3e26e62b	0.1629874
42	0x3d77203b	0.06033347
43	0xbceb616e	-0.028732982
44	0xbe117ac5	-0.14206989
45	0x3cf73bce	0.030179884
46	0x3d37896b	0.044808786
47	0xbca1efb3	-0.019767618
48	0x3d460e7c	0.048353657
49	0xbd229a6e	-0.039698057
50	0xbafc6b26	-0.0019258007
51	0xbcbf3e76	-0.023345213
52	0x3dc815bf	0.09769773
53	0xbc163eb5	-0.009170224
54	0x3b3a3f63	0.002841913
55	0xbc93317f	-0.017967938
56	0xbe27d1d8	-0.16388643
57	0x3d321d8a	0.043485202
58	0x3d28e003	0.04122926
59	0xbd5a43ec	-0.05328743
60	0x3d81a2dd	0.06329892
61	0x3d818c9a	0.06325646
62	0x3e1510fb	0.14557259
63	0x3dcf2cc0	0.10115957
64	0xbd84036f	-0.064459674
65	0xbba36c7f	-0.004987299
66	0xbdb257ff	-0.0870819
67	0x3d552685	0.05203869
68	0xbd23cac9	-0.039988313
69	0xbbbdeba3	-0.0057959124
70	0x3d2062a3	0.039156567
71	0x3cca994e	0.024731304
72	0xbd3f5520	-0.04671204
73	0xbd366499	-0.04452953
74	0x3ccbc8dd	0.024876053
75	0x3d9fef73	0.07809343
76	0xbdceca12	-0.100971356
77	0x3dc47a7f	0.09593677
78	0xbd33e76d	-0.043921877
79	0x3d0a77e1	0.03380573
80	0xbdf53ced	-0.11974511
81	0xbdadb957	-0.084826164
82	0x3ba41d4b	0.005008375
83	0xbd185718	-0.037192434
84	0xbd9bb883	-0.07603552
85	0xbd836904	-0.064165145
86	0xbd3d3bf4	-0.046199754
87	0x3ca840d4	0.020538725
88	0x3d3336f0	0.043753564
89	0x3ddc7626	0.107647225
90	0x3db851b9	0.08999962
91	0xbcd5d6f4	-0.026103474
92	0xbd1f928d	-0.03895812
93	0x3c82b2d6	0.015954416
94	0xbd03d891	-0.032188956
95	0xbcf45b4c	-0.02982869
96	0xbd6809fc	-0.056650147
97	0x3d26e63c	0.040746912
98	0xbd153e72	-0.036436506
99	0x3ca3c5a8	0.01999171
100	0x3c9b6544	0.018969186
101	0xbca11198	-0.01966171
102	0x3dc677a2	0.09690787
103	0xbdc56656	-0.0963866
104	0xbdce26d9	-0.10066003
105	0xbb117222	-0.0022193273
106	0xbd199c51	-0.03750259
107	0x3d0c9044	0.03431727
108	0xbd1b750e	-0.03795343
109	0xbd85c67c	-0.065319985
110	0x3d3bc72b	0.04584424
111	0xbd590798	-0.052985758
112	0xbd577a42	-0.05260683
113	0x3a1849f0	0.00058093574
114	0x3e06eb4f	0.131757
115	0xbcda41a3	-0.026642626
116	0xbcda0cc4	-0.026617415
117	0xbc3d5934	-0.011556912
118	0xbcce7962	-0.025204364
119	0xbcdc2a10	-0.026875526
120	0xbc7642db	-0.015030588
121	0x3cf11479	0.029428707
122	0xbda10a1a	-0.07863255
123	0x3d3859b6	0.04500743
124	0xbcd302ab	-0.025758108
125	0xbd9fe446	-0.078072116
126	0xbd7dd333	-0.061968993
127	0x3d900c6c	0.07033619
