Data/Params_/P_max/p_net_49.pth (torch, 36303 bytes, 21 tensors)

pre_layer.0.weight f4 [10, 3, 3, 3]
00000000: 006d e13d b4c9 5cbd ec18 8fbd bc41 783e
00000010: 3c14 f43d 45f9 bf3d 3eac 8e3d 91d3 ab3e
00000020: 0f87 243e 029f 52be 083d 02be 9536 0e3d
00000030: 2d88 75bc d408 9abd 9812 d4bc 11d9 e0bd
00000040: 7f5f f23d 7d45 fbbc 2d38 89be 0ead 89bd
00000050: 396d 663d dc11 babd 9b5d d7bd cc11 b73d
00000060: 7645 653d 6c24 eebd 0be4 40be 7290 013e
00000070: 7b77 173d 3193 863e dfbe 1abe 546d c73d
00000080: af5b 2d3c ca17 bc3b 1e6d 10be 19ad 02be
00000090: a7fd 52be a1c4 2d3d 0243 913e 43c1 d7bd
000000a0: d878 22be 44ee e13d 8f77 623e 7ef5 0abe
000000b0: cd03 8dbe b951 6ebe 3c39 70bd 6bae bfbb
000000c0: 890e 18be 8a85 a13a d673 373e 95a6 593d
000000d0: 5d00 0bbe 1d24 303c f4d0 00be 7de5 04be
000000e0: 6478 8b3b db29 183e 18e8 ed3d a93f 193d
000000f0: 7502 1abd 0ebe 26bc 63d0 393d 020e 9bbd
00000100: 5f32 1fbb 87ce 6bbe bcf9 b93d 304b eb3d
00000110: b82d 3c3e 8352 b83d 2df8 19be 192c 73bc
00000120: 97cc 4f3d d5b3 02be 8b7e edbd 6cbc df3c
00000130: 52e9 253e 0017 b63d 49b4 39be cc27 ad3d
00000140: 6ee4 bfbc d7a3 593d 0605 233e 58ef c13b
00000150: 3f20 263e fdaf 923d 7658 45be 4aa5 d3bc
00000160: 1b30 e0bd 1fc4 233c 1398 283e 8b70 233e
00000170: dcd4 383e 3d33 cfbd 3a94 943d fa93 353c
00000180: 3826 70bd cdb4 9bbe 9b8f 5abe 6fc8 033e
00000190: 4408 703e 6945 2a3c 4962 7b3e 23d5 16be
000001a0: d800 083d bb29 2bbe 545b 12be e3d3 66be
000001b0: 45ed 5ebe e4be 1cbe 2050 2fbd 1d53 8ebe
000001c0: 3221 a23c 5fa4 75be c982 2fbe 6ddf b9bb
000001d0: 3df2 69be 796e b73d a661 663e 26df 433e
000001e0: b7bd de3d d5b7 ab3d ab4a 473e 19fe aa3c
000001f0: 9a0b 2a3e dd89 2b3d a363 b13c a60c 5cbc
00000200: 11cb b3bd f26a ba3d 3c2b 063e a415 af3d
00000210: 447b d9bd d66f b53d 06bb 233e 0354 1d3d
00000220: 3677 f83d 0314 683e a4b7 2bbe ac64 28be
00000230: 1501 473e d536 cebd 13d5 73be b4f1 c6bb
00000240: e677 e03d 2e75 2b3e f080 973e 60df c5bd
00000250: c92e 93bd 7a0d 4a3e 6638 80bd 727c 73be
00000260: 59e4 23bd 2bed 583e 0669 863d 0b26 563e
00000270: 1f98 a43c 2a04 5cbe f1e2 13be 5a37 42be
00000280: 2325 70be fab5 7d3d e132 473e 19b0 8dbd
00000290: 37da 293d 06c3 e13d 3a6d 82be 1851 263e
000002a0: 7811 e3bd a604 303b c19d 79bd abe4 b0bc
000002b0: 5105 17be c2e9 4bbd 9af2 a0bc 4166 52be
000002c0: 719f 973c 0915 eabd 2438 24bc 948c 883e
000002d0: 4ab0 313e 952d 0ebe bb2c b4bd d6a9 5ebd
000002e0: 3c6d c23c fdf9 2f3e c4ff 013e ca82 653d
000002f0: 7c0d e0bc 0629 d53d 47a2 1dbe 3e66 4cbe
00000300: 4d96 1a3e f73e 11bd d8eb 20bd a553 203d
00000310: f98d 063d c5ee de3d a161 24be 2f9c 34be
00000320: 04bb 61be b441 803d 951c 54bd 15eb 0dbc
00000330: b49e 7a3e fdd5 a23c f074 be3d a4e2 46be
00000340: e0c8 81bd 7d04 08bd f1a5 953d 2429 843d
00000350: 3342 2ebe 72eb 123e ec31 7a3e 7a54 243e
00000360: dffb 2d3e 4bbe 00bd 9591 00be b330 743c
00000370: ca8a 973d 3ced bbbe 64c0 813e 2106 0a3e
00000380: 300d 09be 5ce5 fb3d 8cf1 b3bd 9b49 48be
00000390: 82d2 923e 239e 353e 5eae ebbd d9ac c0bc
000003a0: 7620 3e3d ed85 8fbc a152 933e 6b15 1bbe
000003b0: 5b2e cfbd 5612 f53d 97cd b3bb 1105 5cbe
000003c0: 89c4 bc3d 78d9 13bd 71b5 11be 7950 4dbe
000003d0: 0868 72be 9879 cc3d c54b cabd ca82 2abe
000003e0: db97 44bc 5efd eebd fc65 66bd 9e2b 483e
000003f0: d804 a139 b1f7 b9bd c159 1dbe ae9e ec3d
0.11007118 -0.053903297 -0.06987175 0.24243826 0.11917922 0.09373716 0.06966446 0.3355985
0.16067146 -0.20568469 -0.12718594 0.034720022 -0.01498608 -0.07521215 -0.025887772 -0.10978902
0.11834621 -0.030672783 -0.2680067 -0.06722461 0.056256507 -0.09085438 -0.10515901 0.08938941
0.055974446 -0.11628041 -0.18836991 0.12652758 0.03697918 0.26284173 -0.15111874 0.097376496
0.010580941 0.0057401406 -0.14104125 -0.12761344 -0.20604573 0.042423848 0.28371435 -0.105349086
-0.1586641 0.11031774 0.2211592 -0.1357021 -0.27541962 -0.23273362 -0.058648333 -0.0058496497
-0.14849295 0.0012323123 0.17915282 0.05313738 -0.13574357 0.010750798 -0.1257971 -0.12978168
0.004256295 0.14859717 0.11616534 0.037414227 -0.0376 -0.0101771485 0.04536475 -0.07571031
-0.0024291498 -0.23028003 0.09080836 0.1148895 0.18376815 0.09000113 -0.15036078 -0.014842057
0.05073222 -0.12763913 -0.11596402 0.027311526 0.16202286 0.08891106 -0.1813518 0.08454856
-0.023424353 0.053134765 0.15919885 0.0059184246 0.16223238 0.07162473 -0.19272026 -0.025835652
-0.109466754 0.009995489 0.16464262 0.159609 0.1804995 -0.10117195 0.072548345 0.011082644
-0.0586302 -0.30411378 -0.21343844 0.12869428 0.23440653 0.010392525 0.24549212 -0.14729743
0.03320393 -0.16715138 -0.14292651 -0.22541766 -0.21770199 -0.15307194 -0.042801023 -0.27797785
0.01979122 -0.23988484 -0.17139734 -0.0056723864 -0.22846313 0.08956618 0.22498187 0.19128093
0.10876029 0.083846726 0.19462077 0.020873116 0.16605988 0.041879524 0.021653956 -0.01343075
-0.08778966 0.091024294 0.1310243 0.085490495 -0.10619214 0.08859222 0.15989313 0.038410198
0.12132113 0.22663884 -0.16769272 -0.16444653 0.19434007 -0.10069052 -0.2381175 -0.0060712937
0.10960369 0.16743919 0.2959056 -0.09661746 -0.07186658 0.19731703 -0.06260757 -0.23777941
-0.04001269 0.21184222 0.065630004 0.2091295 0.020092068 -0.21485963 -0.1444204 -0.18966427
-0.23451667 0.061941124 0.19453003 -0.069183536 0.04146787 0.11023526 -0.25473958 0.16241872
-0.11087316 0.002685824 -0.06094146 -0.021593412 -0.14748122 -0.049783476 -0.019646931 -0.2054682
0.018508645 -0.114297934 -0.010023151 0.26669753 0.17352405 -0.13884576 -0.08797594 -0.054361187
0.023733728 0.17185207 0.12695223 0.056032933 -0.02735018 0.10408215 -0.15393935 -0.19960877
0.15096398 -0.03546044 -0.039287418 0.03914227 0.03285024 0.108853854 -0.16052867 -0.17637704
-0.22043997 0.06262532 -0.05178507 -0.008662005 0.24474603 0.019877428 0.09299648 -0.19422394
-0.06337142 -0.033207405 0.073070414 0.064531595 -0.1701744 0.14347628 0.24433106 0.1604785
0.16990612 -0.031431478 -0.12555535 0.014904189 0.07399519 -0.36704433 0.25342095 0.134789
-0.13383937 0.12299606 -0.08786306 -0.19559328 0.2867623 0.17736106 -0.11507867 -0.02351992
0.046417676 -0.017519915 0.28773978 -0.15144889 -0.101162635 0.11966388 -0.0054871547 -0.21486308
0.092171736 -0.036096066 -0.1422937 -0.20050229 -0.23672497 0.0998413 -0.09877733 -0.16651455
-0.011999096 -0.1166942 -0.056249604 0.19547889 0.00030711922 -0.090804465 -0.1536627 0.11553703

pre_layer.0.bias f4 [10]
00000000: f46f 23bd 6e37 69bc 448f b73b ce32 423c
00000010: 251d 863e d4fd 3e3d 85e9 a93c d0e5 503d
00000020: 088f e53d 8376 053e
-0.03990169 -0.014234407 0.0056017954 0.011852933 0.2619411 0.046628788 0.020741234 0.051000416
0.11208922 0.1303349

pre_layer.1.weight f4 [10]
00000000: 8820 8e3f 9f37 883f 0892 8e3f 23c2 a73f
00000010: 053e 943f e6f1 a73f 7744 893f 2f75 933f
00000020: 6bc2 993f 9a3b 8c3f
1.1103678 1.0641974 1.1138315 1.3106121 1.1581427 1.3120697 1.0724019 1.1520137
1.2012457 1.0955689

pre_layer.1.bias f4 [10]
00000000: 263d 1a3e 36e6 a9bd df84 8e3b 3c49 6cbd
00000010: b9c7 e73d 7533 853d b656 e43a e8be b53d
00000020: 1900 b33d 571e 973d
0.15062389 -0.082958624 0.0043493356 -0.05768703 0.11317391 0.06503955 0.0017420861 0.08874303
0.08740253 0.07378834

pre_layer.1.running_mean f4 [10]
00000000: 3a75 5c3e 0a72 ed3d 4bd3 9a3c a826 f23c
00000010: 7aec f1bd 4d22 3f3c b20b 373d 42a6 6a3d
00000020: 261a b23d 7aca 5c3e
0.21529093 0.11594017 0.01889958 0.029559448 -0.118126824 0.011665893 0.044688888 0.057287462
0.08696394 0.21561614

pre_layer.1.running_var f4 [10]
00000000: c6ac ef3e c4e5 0a3f 22fb be3d 00a8 183f
00000010: 7e84 063f da9c 5e3f 4028 b93d b997 083f
00000020: 35fc 8b3f c2ff b23f
0.46811503 0.54256845 0.093252435 0.5963135 0.5254592 0.86958086 0.0904088 0.5335651
1.0936342 1.3984301

pre_layer.4.weight f4 [16, 10, 3, 3]
00000000: 1109 b3bd 93c3 8bbc 5320 34bd 1f96 a93d
00000010: f481 353c eabc 9ebc a53f ec3d 918c 45bd
00000020: 311b b2bc ff37 11bd fc4b d7bc 3d6b e43d
00000030: 70d7 11be ce96 c5bd 8b1d 8b3c 2229 e5bd
00000040: be54 99bb d5bd e63c 13ab 0f3d 0840 c23d
00000050: 19f0 dabc 3746 e03d 61ff 023e 1332 c13d
00000060: 7887 023e 8fc3 babd 6ded 8e3d 2d2f 4b3e
00000070: 59a4 f93d 280c a7bd 3226 7abd 293c b43d
00000080: ee79 043d b90b 2a3e 9ef3 2c3d b2fe a83d
00000090: 8f4f f4bd dea7 c5bd 2582 b5bd 01a5 4fbe
000000a0: 7488 2f3e 4ab6 dcbd fb2f 4b3d dd9c 673e
000000b0: 7f8b 813d 8f07 99bd 2d6d 10be e6de 583c
000000c0: 7482 6d3d 1e22 1bbe c9fd 91bd 727b 71bc
000000d0: 6f05 353d 4948 b03d 0b99 22bd f0d7 b3bd
000000e0: 9619 123c be6c 0abd 6efb bcbc a1c4 afbd
000000f0: 26df a7bb ff99 313e f4c4 e4bb 7e86 7abb
00000100: c172 bf3d 4de5 bb3d eabe b23b 40af 3fbd
00000110: e21f c4bc 9f1a 023e cfe9 04bd 653d 973c
00000120: d89c 72be f8e4 f2bd 14ca 38bd 2e15 54be
00000130: ab6d f2bd 546a debd d351 69bb a921 723d
00000140: bf1b fa3d 7f1d e2bd 84fe 05bb 80b5 833d
00000150: 9de0 1bbd 8b7a 143e b28a da3d ea8f b93a
00000160: d341 303d 2ecf 143c 8d7e e43d 123f 753d
00000170: 9b10 dd3d e7d6 71bd 726e fbbc 8b9e 823c
00000180: 4476 513c 2c4b 15bb 1d4a 613a d822 c23d
00000190: 7d3e 17be 7c43 523c c1b1 a2bc 3565 573d
000001a0: 87a4 433d f0cd 703d d573 0b3e 9828 433d
000001b0: 0967 e23d 781e 0f3d ca68 c13d 94e5 6ebe
000001c0: d1d1 71be 3c48 87bb 8f7e 96bd 4ef6 83bd
000001d0: 41ff dfbc 1c56 483d 4a1d 3c3a 0f3c 143e
000001e0: 8597 88bc 2269 1ebe fc60 a33d da84 e63d
000001f0: d23e 20bc 0a3f a83d 1724 313e a8ad cf3d
00000200: 0253 5a3d ecab 01be 4792 33be d6ec 3abd
00000210: 9437 e43d c1c4 56bd 6f3e c23d 782a a23c
00000220: c915 53bd 4e9c 47bd 0522 bcbd cbec 23be
00000230: d2f9 88bd 376d f03d c5cd 3fbd 1bb5 433d
00000240: 8cf1 053e bb25 9f3d 74a5 a9bd 078f 6abd
00000250: 3408 873c 999d f83d ed83 3f3d 1ec7 de3d
00000260: 6503 773d fb6f 61bd a343 f8bd 659f 633c
00000270: 7be9 42be 5656 62be 2868 4fbe 12a7 723c
00000280: cff7 34bd d579 393b e120 42bd b46b 873d
00000290: be1b 4d3b e1ef af3c 9b44 1bbc 384c 8fbb
000002a0: 0a23 293e aab3 f2bc 48bd a93c 4ca1 fb3c
000002b0: f571 42bd 0e6b c0bd 0277 0ebb e9f0 8c3c
000002c0: fa31 c0bc ce00 963d 8136 1f3d c355 56bd
000002d0: 62ab 1ebd 8514 28bd 10f6 033e 981a 2a3d
000002e0: 5596 f03a 6886 3f3c 2b36 0b3d 2918 b03d
000002f0: a43c 09be 8656 c2bd 4fd8 f2bc 5390 fcbc
00000300: ea68 433c a70c 56bd 5ac8 6e3d 5426 11be
00000310: 4003 82bd 35cd 483d 9a9b 453d 3bae 383d
00000320: 7a04 473d 29eb 44ba cf9e 2a3d 640e d13d
00000330: 7134 c23d 77cc 953d 4132 e33d 684c 38bd
00000340: 15fe c73c 1aa7 dc3d 8060 f7bb 7aae d4bd
00000350: 34be fabb 7d2e 193e d3de 4b3d 8d23 203d
00000360: 7d4a 033c f03a 03bd f494 36be d872 103e
00000370: 45a3 823d ac8e 9b3d 38f4 1e3d 2271 003e
00000380: 6d79 b83d 4d9c e23c 0913 08be 601e f33b
00000390: 3fa0 0ebe c93b e13d b27f 993d 15f5 20bd
000003a0: ce33 53bd 2695 6d3d 08dd 11bc 2767 d1bc
000003b0: 7eb1 1bbd 40b0 dd3d 2021 08be d1f6 e8bd
000003c0: 8e19 a5bd 346d fcbd b1e8 89bd 51db e4ba
000003d0: ce4a 523c 3ac0 fd3c d958 98bc 03c0 8bbc
000003e0: ec32 e23c b376 833d b92a 55bd b331 693d
000003f0: 22b8 f0bc 5719 4dbe 8468 28be f1eb b3bb
-0.08741964 -0.01706103 -0.04397614 0.082805865 0.0110783465 -0.01937719 0.11535577 -0.048229758
-0.021741481 -0.035453793 -0.02628135 0.111532666 -0.14242339 -0.09647904 0.01698186 -0.11189486
-0.0046792915 0.02816669 0.03507526 0.09484869 -0.026725816 0.109508924 0.12792732 0.09433379
0.1274699 -0.09119331 0.06978879 0.19842215 0.1218955 -0.081566155 -0.061071582 0.08800537
0.032342844 0.16606034 0.04222452 0.08251704 -0.11929237 -0.09651159 -0.08862714 -0.20277788
0.17141896 -0.107769564 0.049606305 0.22618432 0.06325435 -0.07472145 -0.14104147 0.013236737
0.057985738 -0.15149733 -0.07128484 -0.014738904 0.044194635 0.08607537 -0.039696734 -0.08781421
0.008917233 -0.03379511 -0.02306911 -0.08582426 -0.005123037 0.17343901 -0.0069814865 -0.0038227136
0.093480594 0.09174595 0.0054548876 -0.04679799 -0.023940984 0.12705468 -0.03244954 0.018461892
-0.23692644 -0.118600786 -0.04511459 -0.20711204 -0.11837324 -0.10860124 -0.003560175 0.059114132
0.122123234 -0.11040782 -0.0020445893 0.06431103 -0.038056005 0.14499871 0.10670985 0.001415727
0.043031525 0.009082599 0.1115695 0.0598746 0.10794183 -0.059042837 -0.030692313 0.01594474
0.012784544 -0.0022780402 0.00085941126 0.09479302 -0.14769931 0.012833472 -0.01986015 0.052586753
0.047764327 0.058790147 0.13618405 0.047646135 0.11054809 0.034941167 0.09443815 -0.23329765
-0.23615195 -0.004128484 -0.07348358 -0.06443463 -0.027343394 0.048910245 0.0007175995 0.14476036
-0.016673813 -0.15469792 0.07977483 0.11255808 -0.0097806025 0.08215149 0.17298923 0.10140544
0.05330182 -0.12663239 -0.17536269 -0.04563602 0.11143413 -0.052433733 0.094845645 0.019795641
-0.051534448 -0.04873305 -0.09186176 -0.16008298 -0.066882744 0.11739581 -0.046827096 0.047780138
0.13080424 0.077708684 -0.08283511 -0.057265308 0.016483404 0.12139434 0.046756674 0.10877822
0.06030597 -0.055038434 -0.12122276 0.013892983 -0.19034378 -0.22103247 -0.20254576 0.0148103405
-0.04418164 0.0028301377 -0.047394637 0.066123396 0.0031297053 0.021476688 -0.009476806 -0.0043730997
0.16517273 -0.029626686 0.02072014 0.03071656 -0.04747196 -0.09395419 -0.0021738415 0.017204719
-0.02346133 0.07324372 0.03887034 -0.052327882 -0.038737662 -0.041035194 0.12886834 0.041529268
0.0018355349 0.01168976 0.033987205 0.08598358 -0.13402039 -0.09489159 -0.02964416 -0.030830538
0.011926869 -0.05225816 0.05829654 -0.14174777 -0.06348276 0.049023826 0.048244096 0.045088034
0.048588254 -0.0007511848 0.041655358 0.10207823 0.09482659 0.07314389 0.110935695 -0.04499474
0.024413148 0.107740596 -0.0075493455 -0.10384841 -0.0076520685 0.1495914 0.04977305 0.039096404
0.008013365 -0.03203863 -0.17830259 0.1410631 0.063787974 0.07595572 0.038807124 0.12543157
0.09007535 0.02766242 -0.13288511 0.0074193925 -0.13928317 0.10997731 0.07495059 -0.03929623
-0.051563077 0.058003567 -0.008902796 -0.025561882 -0.038011067 0.10824633 -0.13293886 -0.113752015
-0.08061515 -0.12325516 -0.067338355 -0.0017460381 0.012835218 0.03097545 -0.018597053 -0.017059332
0.027612172 0.064191245 -0.052042697 0.056932162 -0.029384676 -0.20029198 -0.1644612 -0.005490773

pre_layer.4.bias f4 [16]
00000000: 78e2 cc3d f090 2dbd bf42 c6bc 7142 cd3d
00000010: 2087 43bd 729a 613d 6a03 273e 1840 083e
00000020: 5658 ba3d 618d e1bc f441 033d bd90 153d
00000030: dcf0 e5bd fae0 803d e2ec f5bd b6bd 0ebd
0.10004133 -0.04237455 -0.024201749 0.10022438 -0.047736287 0.05507893 0.16309896 0.133057
0.0909888 -0.027533235 0.03204532 0.036514986 -0.11227581 0.06292911 -0.120080724 -0.03484889

pre_layer.5.weight f4 [16]
00000000: 1081 943f 462f 983f 2b89 963f 7f1e aa3f
00000010: 41ac 903f 2eca 8e3f 76ef 973f 4b6b 913f
00000020: 155b 8b3f e2c8 9b3f e929 943f de33 8b3f
00000030: 38f9 9c3f cc68 893f c589 913f 0bb8 963f
1.1601887 1.1889427 1.176061 1.3290557 1.1302568 1.115545 1.1869953 1.1360868
1.0887171 1.217068 1.157529 1.0875204 1.2263556 1.0735106 1.1370169 1.1774915

pre_layer.5.bias f4 [16]
00000000: baa3 383e 4434 963d 432d 5a3d 1c94 b33d
00000010: 8b13 25be 887a fe3d b008 1e3e 8b08 923d
00000020: 5930 a53d 8906 173d 05d7 3e3d 0bd0 b8bd
00000030: 7bbd 54bd f5b5 f4bd be4b 123d 3b56 073e
0.18031207 0.073341876 0.05326582 0.08768484 -0.16120736 0.12425715 0.15433002 0.07130536
0.08065862 0.036871467 0.046591777 -0.09024056 -0.051938515 -0.11948768 0.035716765 0.13216488

pre_layer.5.running_mean f4 [16]
00000000: e19d 243e 10d0 2cbe 822d c4be a192 62be
00000010: 1bdb 0fc0 5279 dabd bd05 76be 98f7 903c
00000020: 783f af3f c300 83be 7b4c 07bf efd1 8dbf
00000030: a29c 74bf 3dfa 14bf d15e 50bf 8bae 8c3f
0.16075851 -0.16876245 -0.3831597 -0.22126247 -2.2477481 -0.10667671 -0.24025626 0.017696187
1.3691244 -0.2558652 -0.52851075 -1.1079692 -0.955515 -0.58194333 -0.8139468 1.0990766

pre_layer.5.running_var f4 [16]
00000000: f9f8 da3e 7c6f 5b3f 3489 073f 095f 473f
00000010: 0f37 4240 2d5d 913f 3a16 b43e be9b 553f
00000020: 2ab9 473f cb45 2a3f dc47 f73e 7943 8a3f
00000030: 4d9b 3a3f c31d cc3f bbfe c73f 2bd4 a23f
0.42768076 0.85716987 0.5294373 0.7787939 3.0346105 1.135656 0.35173208 0.8344077
0.7801691 0.66512746 0.48297012 1.0801841 0.7289322 1.5946583 1.5624613 1.2720999

pre_layer.7.weight f4 [32, 16, 3, 3]
00000000: 4005 98bd 4ac2 f1bd 8458 5fbd cf75 69bd
00000010: 1ffb 13bd a17f 45bc eaf1 6cbc de08 03bd
00000020: a3c8 f7bd 8a45 a4bd 78c3 0dba 1668 a13d
00000030: 0e8f 3c3d 3877 cdbc d52c 253d 41ab c43c
00000040: f23e 363c 5c9a 2d3d 63db 8c3c 9615 b33d
00000050: b8a2 453d b459 1d3d 3776 74bd 46a7 c43d
00000060: 4c8d 88bb 41d7 21bd 56fb 933c 6f2a 173d
00000070: b7eb 2e3d 480a 40bd b3b5 0fbd d3fc ad3d
00000080: edd6 aabd 860d 72bc eed7 6d3d 19c5 caba
00000090: 9e3d 5c3d fd81 2a3e 2298 3f3d 4acd 06be
000000a0: 456c a9bc 9df0 8ebd 4cb6 2f3d 9e1c 1b3e
000000b0: 5e10 eb3d 1fda c13b aa69 ab3d 747c 9ebd
000000c0: c7bf 3ebd 8423 c8bd 4a78 24be f5b6 89bd
000000d0: 542f 81bd 417b 1dbd 2933 a33d 93a8 c5bb
000000e0: 1c78 0cbc ef9d acbd 03c4 b3bd 9559 9dbd
000000f0: bcdf 9e3d 34de 0f3d 2201 7e3d 6bae 8bbc
00000100: 62a4 e1bd bcbc a63c 4d96 123d ee16 3abd
00000110: 40b4 8fbb c750 00bd 3c25 8f3d 091e 783b
00000120: ea8e 143c 8de8 733d 11ca 0b3c fe23 1f3d
00000130: e713 cfbd 205a 6cbd c899 cdbc b213 0bbd
00000140: 3be8 82bd bcb3 69bc 8230 a33b a7aa 9cbc
00000150: 950a a43d 3c65 e93b 16a7 813d 990f 9d3d
00000160: bcc1 9bbd d873 b9bc 6d62 46bd 2a1d 383d
00000170: a52f 9e3d 3efa ec3d 3571 be3d decb 0cbd
00000180: 211f 70bd 7a78 25be df7e 613c 0d19 043e
00000190: d2b2 153d a066 043e 862b e03d 7b8f 11bc
000001a0: c800 3a3e 0f66 1dbe fdb5 1cbe 0c17 62bd
000001b0: 3b2e 193d 773b 5b3d 1595 7cbd 3557 81bc
000001c0: 1ccc ac3c a5c2 1cbd 4944 703d 1910 29bc
000001d0: 5ff0 6c3d cd59 d23d e084 df3d d7df 853c
000001e0: 6b7c 623e 2760 463e 9fab 0d3d 4eaa 2e3d
000001f0: 1c13 b53b c4d8 9bbb 49e6 b9bd 0323 0cbd
00000200: c688 a6bd 61a4 99bd 0a47 fcbc e750 87bd
00000210: 876d c83d a019 5f3e 9fb4 3b3e a3b4 893d
00000220: 14e3 e73d 77f2 01bd ff14 a23d 59f9 953d
00000230: 866f 05be 763f 93bd 43d1 1dbd 233f a3bb
00000240: 8e38 af3d d56e 5ebd 655e 153d fe63 503e
00000250: b179 efba b259 133d 149c 1f3c 6b9f 863d
00000260: 3942 a43c 8fca a9bd 9270 80bd 0adf f0bc
00000270: ab73 643e dc46 673d e4b7 b23d 8eb0 773d
00000280: 5f3c af3d f701 ec3c a1c8 ff3d fe0f 863d
00000290: 8a11 e63d 89ac 003e f4b8 b23b 2ec8 1a3e
000002a0: c871 243e d6f1 203e 14d2 8e3d 586e e2bb
000002b0: c78d aa3d d983 52be 6d5e ebbd 62b3 c0bc
000002c0: ab64 a5bd 2344 213e db5f cf3c 0512 083e
000002d0: f8f5 febc f011 433d 2b64 b4bc d269 d53c
000002e0: 70a7 c8bd 8e7a 21bd fbd4 de3d 6783 403d
000002f0: 10d1 823d 261d 0ebd d7e5 a53d 66c6 15bd
00000300: 0dd1 e8bd 7d1c af3c 739d 9a3c e8dc bdbd
00000310: adf2 89bb 9835 b1bc 2d9c 8a3d 4132 903c
00000320: 3f13 943b bbfb 253d 5949 b8bc 1f85 e2bc
00000330: 7b51 8a3d ebc9 c4bc 7c19 773c e740 093e
00000340: 0cca 173b 6a5d acbd d855 fe3d b28d a0bd
00000350: 3eaf 953b 25a9 f13d 3842 223e 01f5 973c
00000360: bb87 633d 4ec7 b43d be44 b73d 1bb6 93bd
00000370: 679b 603d 3b2e cbbc a938 a8bd 1744 dc3c
00000380: 54fa 0a3d eedf 293d a599 1fbe f43e f5bc
00000390: b9fc e23d ebe0 2a3e 1243 f5bb b775 693d
000003a0: 676c 5a3c 11c7 c5bc 7e76 9abd 03ea 023d
000003b0: 547f 263d 4f73 4c3d f0a5 aa3d ef79 4fbb
000003c0: 4b4d 713d 8fbc 183b bcb9 8f3d 5d11 913d
000003d0: 511a 66bc db13 2b3d bd6c 0f3d 66d8 1c3d
000003e0: 436c 2e39 eb75 723d 1af7 013d 1850 1b3e
000003f0: eaf2 943d 8b6b a73c a924 25bc 9415 14bd
-0.07422876 -0.11804636 -0.054527774 -0.056997117 -0.03612816 -0.012054355 -0.014461974 -0.03199088
-0.12098815 -0.08021076 -0.000540785 0.07881181 0.046034865 -0.025081262 0.04032596 0.024007441
0.011123406 0.042383537 0.017194455 0.087443516 0.048250884 0.038415626 -0.05968305 0.096022174
-0.0041672345 -0.039511923 0.018064182 0.036905702 0.042705264 -0.046884805 -0.03508539 0.08495488
-0.08341775 -0.014773732 0.058067255 -0.0015470117 0.0537697 0.16651149 0.046775945 -0.13164249
-0.02068151 -0.06979487 0.04289846 0.15147635 0.11477731 0.0059158946 0.08369763 -0.07738581
-0.046569612 -0.09772399 -0.16061512 -0.067243494 -0.06307855 -0.038447622 0.079687424 -0.0060320585
-0.008573558 -0.08428561 -0.08777621 -0.07683102 0.07757518 0.03512402 0.0620128 -0.017050942
-0.11017682 0.020353667 0.03578787 -0.045432024 -0.004385501 -0.031327035 0.06989524 0.00378597
0.0090672765 0.05954795 0.008532063 0.038852684 -0.10111218 -0.057703137 -0.025097743 -0.03395433
-0.06391951 -0.014264043 0.004980148 -0.019124342 0.08009831 0.007122664 0.06330697 0.07668991
-0.07605311 -0.022638246 -0.04843371 0.044949688 0.07723931 0.115711674 0.09298936 -0.03437411
-0.058623437 -0.1615924 0.013763159 0.12900181 0.03654749 0.12929773 0.109458014 -0.008884306
0.1816436 -0.15370964 -0.15303798 -0.05519776 0.037397604 0.053523507 -0.061665613 -0.015788654
0.02109342 -0.038271565 0.05865887 -0.010318779 0.057846423 0.102710344 0.10914016 0.016342087
0.22117774 0.19372617 0.0345875 0.042642884 0.0055259597 -0.004756065 -0.090771265 -0.034213077
-0.08131556 -0.07502056 -0.030795593 -0.06607228 0.09786516 0.21787119 0.1833062 0.06723907
0.113226086 -0.031725373 0.07914161 0.0732295 -0.13030824 -0.071898386 -0.038529646 -0.0049818917
0.08555709 -0.054304916 0.036466975 0.20350644 -0.001827052 0.035974212 0.009741802 0.06573375
0.020051109 -0.08290588 -0.06271471 -0.029403228 0.22309749 0.05646406 0.087264806 0.06047111
0.08556437 0.02880953 0.12489439 0.06546019 0.11233814 0.12565817 0.005454177 0.15115425
0.16059029 0.15717253 0.06973663 -0.0069101267 0.08327823 -0.20558108 -0.1149262 -0.023523036
-0.080758415 0.15748648 0.025314262 0.13288124 -0.031123146 0.04762453 -0.02202042 0.026051436
-0.09797561 -0.039423518 0.108804666 0.047000315 0.06387532 -0.034695767 0.08100479 -0.03656616
-0.11367998 0.021375889 0.018873906 -0.0927065 -0.0042098374 -0.021632 0.067680694 0.017602088
0.004518896 0.040523272 -0.022495912 -0.027651368 0.067538224 -0.024022063 0.01508176 0.13403665
0.00231612 -0.08416255 0.12418717 -0.07839526 0.0045680096 0.1179984 0.15845573 0.018549444
0.055549365 0.08827077 0.089486584 -0.07212468 0.054835703 -0.024802318 -0.08213932 0.026887937
0.033930138 0.04147332 -0.15585954 -0.029937245 0.11083359 0.16687362 -0.007484802 0.056997027
0.013331509 -0.024142774 -0.07542132 0.031961452 0.040648773 0.049914654 0.08332431 -0.0031658371
0.058911603 0.002330575 0.07017848 0.0708339 -0.01404436 0.041766983 0.03501581 0.03829231
0.00016634264 0.059194487 0.031729795 0.15167272 0.07272895 0.020437023 -0.010079541 -0.03615339

pre_layer.7.bias f4 [32]
00000000: 62fc 1abd 7565 9bbd 4598 2b3d 09b0 943d
00000010: 3faf 0abd f2f7 873d e6c2 48bc a0da 7f3d
00000020: dc3a ce3b f908 543d daaf 7abc dacb b13d
00000030: 5d22 bf3d 1fee fd3d 93d2 863c ace0 a83d
00000040: 718b 903d 8b36 a23d 6fa1 1cbd b340 c73d
00000050: e4d6 813d f362 5b3e b49c 2c3d 8d30 353d
00000060: 6638 803d 4f1e 0a3e 98f7 603d b2c0 713c
00000070: 93b4 b43c 14e8 063e ed0b 32bc 0d1d 873d
-0.037838347 -0.07587711 0.041893262 0.072601385 -0.033858534 0.06639089 -0.012253499 0.062464356
0.0062936377 0.05176637 -0.015300715 0.0868146 0.09332726 0.123989336 0.016457831 0.08245978
0.07057846 0.079205595 -0.038239893 0.09729137 0.06339815 0.21424465 0.04214163 0.044235755
0.06260757 0.13488124 0.054923624 0.014755415 0.02205876 0.13174468 -0.010867101 0.06597338

pre_layer.8.weight f4 [32]
00000000: f61e a53f 7b36 a53f d165 ca3f 54ab 9f3f
00000010: 4d06 ac3f 7731 a93f aeb1 aa3f 2b57 b63f
00000020: 506f ad3f ab32 a63f bba6 b03f fdfa c63f
00000030: 4992 a63f aaac 983f 5e8c ae3f 3194 a63f
00000040: 021d b13f de55 a13f c3b8 8c3f ae2e a63f
00000050: a61c af3f b235 993f ddae aa3f beb7 ad3f
00000060: 0ba9 a43f 36d4 903f 60f9 a93f 79bf ab3f
00000070: 8d3d a53f 9925 b13f 4b01 a93f e697 ae3f
1.2900074 1.2907251 1.5812322 1.247416 1.3439423 1.321822 1.3335474 1.4245352
1.3549595 1.2984213 1.3800882 1.5545346 1.3013393 1.1927693 1.3636587 1.3013974
1.3836977 1.260433 1.0993885 1.2982996 1.3680618 1.1969512 1.3334614 1.3571699
1.2864088 1.1314762 1.3279228 1.3417808 1.2909409 1.3839599 1.320352 1.3640106

pre_layer.8.bias f4 [32]
00000000: 2ba6 7d3e 921d 563e b8a8 32be e4b7 b6bd
00000010: 0e8b 6a3e 8cca 893e e5ba 8b3e f8ac 893e
00000020: 7352 783e f44c 30be 8d48 883e 6b87 01be
00000030: cda0 7b3e 4a49 273d d7c5 e4bd ba4a 753e
00000040: 6575 563e 7afa 1cbe 18bd 43be 3cf2 803e
00000050: e407 683e f031 31bd 111d 8e3e 4c74 7f3e
00000060: 0c3c 4bbe 1f32 a43e fb18 04be baef 7c3e
00000070: 337a 873e 18a0 803e 58ff 6b3e f15d 713e
0.2477042 0.20909718 -0.17447174 -0.08921793 0.22904608 0.26912344 0.27291027 0.26889777
0.24250202 -0.17216855 0.26617852 -0.12649314 0.2457306 0.04084138 -0.111705475 0.23954287
0.2094322 -0.15329924 -0.19115102 0.2518481 0.2265926 -0.043260515 0.2775655 0.24946707
-0.19847125 0.3206949 -0.12900154 0.24700823 0.26460418 0.25122142 0.23046625 0.23570992

pre_layer.8.running_mean f4 [32]
00000000: b719 693e 0365 833f 32a9 b9bf 38ea 81bf
00000010: bd16 0c40 8d86 fdbd e62e d43e 51c7 c33f
00000020: 4fc3 cb3d d9ab 33bf 9c7a 943f 94b0 eabe
00000030: db61 ed3f b5eb b03e a3d9 b8be ed59 d93e
00000040: 8a01 15be 3d09 6cbf 5814 09bf 33a8 93bf
00000050: 97bb 483d 7393 37be 351d 64be 4545 c0be
00000060: 9669 fabf ea47 b63e 4509 b8bf 0ae2 ab3f
00000070: 03f7 1bbe e4c7 cf3f a6b4 e43f d8f3 353e
0.22763716 1.0265201 -1.4504759 -1.0149603 2.1888878 -0.12379179 0.4144203 1.5295202
0.099493615 -0.70184094 1.1599917 -0.45837843 1.8545488 0.3455483 -0.36103544 0.4245142
-0.14551368 -0.92201596 -0.5354667 -1.1535705 0.049007025 -0.17927341 -0.22276767 -0.37552848
-1.9563472 0.3560174 -1.4377829 1.3428357 -0.15230946 1.6232877 1.786763 0.177688

pre_layer.8.running_var f4 [32]
00000000: 0c51 1e3f dbd8 8a3f b3d5 1c40 f388 0440
00000010: dd4d c83f 363e fc3f 7ad0 783f 29af d83f
00000020: 3778 1c40 600d a43f ec9e 9e3f 41e1 f13f
00000030: 2881 c73f 58ec a73f 03f5 6d3f 6bfe 953f
00000040: 241e 783f d7a7 1a40 a113 0340 3dcc 2a3f
00000050: d2a8 ac3f a851 d53f 08e3 6f3f 8247 7b3f
00000060: 399e 2540 e79e f23e a0bd eb3f 0727 ec3f
00000070: 4b63 203f ae38 a53f 7739 0c40 38b8 5440
0.6184242 1.0847429 2.4505432 2.0708587 1.5648762 1.9706485 0.9719311 1.6928455
2.4448373 1.2816582 1.2392249 1.8896867 1.558629 1.3119001 0.92951983 1.1718267
0.9692099 2.4164941 2.048073 0.6671789 1.348902 1.6665545 0.937058 0.9815599
2.5877821 0.47386858 1.8417244 1.844941 0.6265151 1.2907922 2.1910074 3.3237438

conv_con.weight f4 [1, 32, 1, 1]
00000000: 6d04 8ebe 8c8c c3be 413b 343f cdfc f43e
00000010: 8317 c7be 2c3d b3be 8c39 c0be fb63 b7be
00000020: b9b5 a4be 3b51 ef3e 5016 c5be 49a4 3c3f
00000030: e8cf dfbe 4629 d43e 08c9 ff3e c7d0 e2be
00000040: 7a4b c8be 9e93 073f 93c7 ad3e 701d 9cbe
00000050: a132 f7be 471c d13e 503f a9be d16f aabe
00000060: acdf 053f 21f4 91be be7b 0d3f 7c44 d5be
00000070: 3204 a0be 4cb2 c4be a79c ebbe b06a ddbe
-0.27737752 -0.38193166 0.70402914 0.47849122 -0.38885126 -0.35007608 -0.37543905 -0.35818467
-0.32169893 0.4674166 -0.38493586 0.7368818 -0.43713307 0.4143774 0.49958062 -0.4429991
-0.39120084 0.5295962 0.33941326 -0.3049121 -0.48280814 0.40841886 -0.33056116 -0.33288434
0.5229442 -0.28506568 0.5526694 -0.41653812 -0.312532 -0.3841728 -0.46017954 -0.4324546

conv_loc.weight f4 [4, 32, 1, 1]
00000000: fe4d ee3b f062 a1bc b662 14bb c4c2 5fbd
00000010: 8494 67bb 03ab 68bb fc94 15bc aa7a 653c
00000020: 5ea9 9b3c 39c9 30bb e3cf 2ebc ba91 ea3b
00000030: 3fa5 a4bb fb50 0fbd fee2 a33a cf03 213c
00000040: aa98 07bc 4b2e 7c3d 0998 04bb 6e13 e7ba
00000050: 636b 9ebb 47f2 053d 63f2 bf3b 7dfd f0bb
00000060: ca4f 8b3b 4eda d83b 011d d2bb 6951 463c
00000070: ff6f 96bc 2ff3 e1b9 e4b8 9bb8 46a6 1bb9
00000080: be0c e3bc 0ec8 f83b 19e6 1abc 1cab a53d
00000090: c35f 563b a966 35bc 6856 ed3b 5b65 60bc
000000a0: 0687 19bc 19f4 92bc 6556 803c b538 0a3c
000000b0: 4055 4fbb f45f 313c ea22 99bb 5f5f d4bb
000000c0: 772d cc3c 9ff4 9dbd 0308 f33b f444 313a
000000d0: 0567 0a3c 2e03 f5bb c5ed 453b 208c e73c
000000e0: b2e2 f3bc eb31 063d 3ac8 f93c b29b a1b9
000000f0: 1cf9 bf3b 48d5 62bb aa10 0dbc da81 1f3c
00000100: 45a5 613d d4be 21bd e3da d2ba 9a37 75bd
00000110: 85b9 cabc 250e 59bc 3279 d3bc bf0b 1c3d
00000120: 8dea 823c 7b86 19bd 71b7 cebc 7aca 1a3c
00000130: cad3 a13b ccb3 c93a 564a 48bb b601 903c
00000140: 22ee bcbc 62a9 833d 2c87 6cbd 617a a03c
00000150: 3fea 27bc 8b29 703d cbea 4e3c cab3 333d
00000160: 64ec 203c 2311 573d 8304 46bc 0f60 983b
00000170: 1d6e 9e3c aac2 e53a cc01 003c 5310 2ebc
00000180: 22d7 363d 3771 75bc 04c1 92bc af5b f53d
00000190: a26a e0bc c887 d1bc 04db 82bc 119a a93c
000001a0: 3f30 bfbc adef 86bd ef58 883b ff3f 253c
000001b0: 13d7 1f3c 7439 b33d e652 413b 8155 0d3c
000001c0: b08a 2b3c 47db 04be ca93 15be a496 233d
000001d0: 1fc5 c13b 9c69 6e3d 37bc 3d3c bd54 cc3d
000001e0: e033 3fbd 6759 c93d f1d6 c73d 2d7d 5dbb
000001f0: 2c79 693d 55a9 433b 18e5 08b9 abc4 463c
0.007272481 -0.019700497 -0.0022641844 -0.054629102 -0.0035336325 -0.0035502322 -0.009129759 0.014006296
0.019001659 -0.0026975407 -0.010669681 0.0071584852 -0.0050245817 -0.03498934 0.0012503562 0.009827568
-0.008276144 0.061567586 -0.0020232222 -0.0017629692 -0.004834579 0.032701757 0.005857752 -0.007354437
0.004251455 0.006617821 -0.006412149 0.012104371 -0.01836395 -0.0004309653 -7.4254145e-05 -0.00014843894
-0.027716037 0.0075922078 -0.009454274 0.08089277 0.0032710887 -0.011071839 0.0072429664 -0.01369604
-0.009370571 -0.01793866 0.015666196 0.008436372 -0.0031636506 0.0108261 -0.0046733515 -0.0064810957
0.024924023 -0.077126734 0.0074167266 0.0006762289 0.008447413 -0.0074771857 0.0030201536 0.028265059
-0.029771183 0.03276245 0.030490983 -0.00030824315 0.0058585536 -0.0034611989 -0.00860993 0.009735549
0.055089254 -0.03948863 -0.0016086962 -0.05986748 -0.024746666 -0.013248001 -0.025814626 0.03809714
0.015980983 -0.037481766 -0.025233956 0.009447688 0.0049385773 0.0015388667 -0.0030561886 0.01757894
-0.02306277 0.064287916 -0.057746097 0.019589605 -0.01024872 0.05863337 0.012629221 0.043872632
0.009821985 0.052506577 -0.012086037 0.004650123 0.019339615 0.0017529328 0.007812928 -0.010624009
0.04463876 -0.014980606 -0.017914303 0.11980378 -0.027394596 -0.02557744 -0.015973575 0.020703347
-0.023338435 -0.06588683 0.0041609923 0.010086059 0.0097558675 0.08751193 0.0029498874 0.008626343
0.010470077 -0.12974273 -0.14607158 0.039938584 0.0059133912 0.058206186 0.011580518 0.099771
-0.04668033 0.09831505 0.09757794 -0.0033796534 0.057000324 0.0029855568 -0.00013055315 0.01213185

conv_loc.bias f4 [4]
00000000: 2584 903c 3e67 37bd efd7 35bd 5b93 3c3e
0.017641136 -0.044776194 -0.044395383 0.18415587
