Data/Params_/P_max/p_net_50.pth (torch, 36303 bytes, 21 tensors)

pre_layer.0.weight f4 [10, 3, 3, 3]
00000000: 2b1e e93d a996 59bd cb22 8fbd d5e9 7d3e
00000010: 2d70 fa3d 8e7e c73d f62a 9a3d 57b0 ad3e
00000020: 82c3 273e a8d7 4fbe 4b68 02be 01b0 0c3d
00000030: cf77 24bc 788d 94bd a3c3 b4bc 9d58 d5bd
00000040: 0c1c fa3d 6c1c dfbc a483 87be f069 87bd
00000050: acf6 693d 4555 aebd c2b4 cfbd c878 c13d
00000060: d26b 7e3d 48cd e3bd a2df 3bbe afdb 023e
00000070: a638 2b3d 5a19 883e 8434 17be 1d48 cb3d
00000080: 4707 183c 79c9 4f3c 7589 0cbe 6166 03be
00000090: 51e0 54be 586e 363d b9d7 913e 8233 d9bd
000000a0: e5c8 24be 1b16 d83d a248 653e 5c0c 0cbe
000000b0: fa8d 8fbe ef44 70be 3f65 67bd 8d25 a6bb
000000c0: 5c62 18be ac45 9cba 37c5 313e 8111 673d
000000d0: e861 0cbe b976 b03b a442 01be 30e9 05be
000000e0: 39f5 6e3b 817b 183e f46f ed3d 18a8 183d
000000f0: cf13 1abd 6b23 2dbc 4b3e 363d 8214 9abd
00000100: 6733 37bb 8e45 6cbe b4aa bc3d cf58 ec3d
00000110: a45b 3c3e a8d1 b93d 79c0 19be 422c 7ebc
00000120: 23d2 543d 6aad 02be 5c56 eebd 298e f03c
00000130: 74c9 263e 3f18 b63d d64d 38be c318 ae3d
00000140: 6d1a c8bc d9fa 573d 61e1 223e b564 c23b
00000150: ea6f 253e a948 933d 47b1 45be 1e61 e3bc
00000160: d98a e2bd 1679 003c c8ef 293e dfdd 233e
00000170: 4008 383e f348 cdbd f4b8 963d 4227 263c
00000180: 20de 72bd aefa 9bbe 2ee4 5cbe f5c3 043e
00000190: d81d 703e 0898 113c 861e 7c3e a8ec 15be
000001a0: 85bf 013d ca82 2bbe a677 12be cd5d 69be
000001b0: 4bef 5fbe 8869 1ebe 7006 38bd 8582 8fbe
000001c0: 2318 8f3c 61b6 77be e33b 31be 4d3a 02bc
000001d0: 794c 6cbe e6ca b73d dc59 663e 094a 433e
000001e0: 1e36 dc3d b7b7 aa3d 9242 473e a8a8 a63c
000001f0: 234e 293e 22d3 293d bf44 b93c 1043 4ebc
00000200: aa1a b3bd 1789 b93d 709e 063e 16ef b03d
00000210: 2354 d9bd 21ac b53d 1c10 243e 1b12 223d
00000220: 7c31 f83d a8c7 663e 1e56 2cbe eaeb 2cbe
00000230: b974 433e ba84 d1bd 134a 76be 44ea b3bb
00000240: 61db e73d 29fe 2d3e 3466 983e 3b48 c2bd
00000250: 7aef 96bd 85d0 483e fa28 7bbd 5f02 73be
00000260: fa7e 15bd 341a 5d3e c8f1 8b3d 9fd6 563e
00000270: 9cc8 b43c bfe0 5dbe e968 16be ff96 40be
00000280: 76cb 6fbe 16f3 823d 4e1f 453e 9a42 91bd
00000290: 7836 283d d5bd de3d 2af7 82be 71b0 263e
000002a0: b15a e4bd 67c7 423a 29a9 76bd dfc6 c1bc
000002b0: 17dc 18be 395b 4dbd 6fcb b1bc ca72 53be
000002c0: e384 a03c b299 edbd 89d5 4abc a217 893e
000002d0: 8828 2f3e e7ff 0fbe 251b b4bd 3906 68bd
000002e0: a19d bb3c f068 313e c179 003e 4433 5d3d
000002f0: c013 d3bc c4e8 d33d 2a00 1fbe 7425 4cbe
00000300: 859c 1a3e a44a 12bd eea4 1fbd 05bf 253d
00000310: 6857 113d b680 e23d 3b77 24be afa0 35be
00000320: 86a7 61be f364 803d 12cb 57bd 7ce3 1fbc
00000330: 05b1 7b3e 7b08 b03c f515 be3d 9bb6 46be
00000340: 8588 83bd e871 06bd ec96 953d 3c6a 823d
00000350: 90f5 2ebe d284 133e 9acd 7b3e 1c12 243e
00000360: 46c3 303e 475b 05bd 8172 04be ac03 923c
00000370: a110 953d 5e2f bdbe d801 823e 0f7c 073e
00000380: d371 0cbe fbbf 013e a0f5 b3bd 7196 4abe
00000390: 2bb7 943e 8408 353e 8199 edbd eff4 b7bc
000003a0: f035 373d c242 9ebc 2f0b 943e 7f70 1dbe
000003b0: 226d d8bd 9a0f f83d a533 06bc c5e9 5ebe
000003c0: 3eea b93d ed97 23bd d779 15be 32b5 48be
000003d0: 4ec3 6ebe 2ad9 c93d e620 c7bd 1e01 26be
000003e0: 273b 40bc 0e79 e5bd 8e7a 47bd 38f9 493e
000003f0: e177 0a3c ca68 abbd 3137 1abe 95e6 f73d
0.11382707 -0.053122196 -0.06989058 0.24796231 0.12228427 0.09740935 0.075277254 0.339236
0.16383174 -0.2029711 -0.12735097 0.034347538 -0.01003833 -0.072535455 -0.022065943 -0.10417292
0.12212381 -0.027235232 -0.2646762 -0.06612003 0.05712001 -0.085123576 -0.10141899 0.09446865
0.062114544 -0.11123139 -0.18347028 0.12779115 0.04180207 0.26581842 -0.14766127 0.09925864
0.009279079 0.012682312 -0.1372431 -0.12832023 -0.20788695 0.044538826 0.28484896 -0.106055275
-0.1609226 0.10551091 0.22390988 -0.1367659 -0.28038007 -0.23463796 -0.05649304 -0.0050703944
-0.14881271 -0.0011922619 0.17360388 0.056413177 -0.13709223 0.0053852466 -0.12623078 -0.13077235
0.0036462082 0.14890863 0.11593619 0.03726968 -0.037616547 -0.010567526 0.044493 -0.07523443
-0.0027954222 -0.23073408 0.092122465 0.115403764 0.18394333 0.09073192 -0.15014829 -0.015513482
0.051958214 -0.12761465 -0.116375655 0.029364662 0.16287786 0.08891343 -0.17998442 0.08500817
-0.024426663 0.05272946 0.15906288 0.0059324154 0.16155973 0.07191593 -0.19305907 -0.02775627
-0.11061639 0.007841369 0.16595376 0.16002606 0.17971897 -0.100236796 0.07359496 0.010141196
-0.059293866 -0.3046469 -0.21571419 0.12965377 0.23448884 0.008886345 0.24621019 -0.14641058
0.031676788 -0.16749111 -0.14303455 -0.22789688 -0.21868627 -0.15469944 -0.044928014 -0.28029266
0.017467564 -0.24190666 -0.17308001 -0.00794847 -0.23076047 0.08974247 0.22495216 0.19071211
0.107525095 0.08335822 0.19458988 0.020344093 0.16533713 0.041461118 0.022615789 -0.012589231
-0.0874532 0.09059351 0.13146377 0.08639352 -0.10611751 0.088707216 0.1602177 0.039568048
0.121188134 0.225371 -0.16829726 -0.16886869 0.19087495 -0.10230394 -0.24051695 -0.005490573
0.1132114 0.16991486 0.29765475 -0.09486433 -0.07369895 0.19610794 -0.061318375 -0.23731373
-0.036498047 0.21592027 0.068332255 0.20980309 0.022068314 -0.21667765 -0.14688458 -0.188076
-0.23417458 0.06394021 0.19250223 -0.07092781 0.04106757 0.10876051 -0.25579196 0.16278245
-0.111501105 0.0007430226 -0.060219917 -0.0236544 -0.14927708 -0.050135825 -0.02170345 -0.20649257
0.019594615 -0.11601581 -0.012380012 0.26775843 0.17105305 -0.14062463 -0.0879424 -0.05664656
0.022902312 0.17325187 0.12546445 0.05400397 -0.025766253 0.10347131 -0.15527406 -0.19936162
0.1509877 -0.035715714 -0.03897565 0.040465374 0.035483748 0.11059706 -0.16061108 -0.17737077
-0.22036561 0.062692545 -0.052683897 -0.009758826 0.24579246 0.021488419 0.09281532 -0.19405596
-0.064225234 -0.032823473 0.07304177 0.06367919 -0.17085862 0.14406136 0.2459015 0.16022533
0.17261991 -0.032557752 -0.12934305 0.017824017 0.07278562 -0.369502 0.25392032 0.13230918
-0.13715295 0.12670891 -0.087870836 -0.19783951 0.29045996 0.1767903 -0.11601544 -0.02245566
0.044729173 -0.019318942 0.28914782 -0.15374945 -0.105676904 0.12112351 -0.008191024 -0.21768863
0.09077881 -0.03993981 -0.1459726 -0.1960037 -0.2331669 0.09855874 -0.09723072 -0.16211364
-0.011732853 -0.1120473 -0.04870086 0.19723976 0.008451433 -0.08369596 -0.15060116 0.12104527

pre_layer.0.bias f4 [10]
00000000: bd1a 19bd 98e6 52bc 74fd 8b3b cc54 2c3c
00000010: e775 873e 8662 2f3d 6009 8c3c f6a5 503d
00000020: a5d2 e43d dc65 f93d
-0.037379015 -0.012872361 0.0042721573 0.010518264 0.2645714 0.04281857 0.017094314 0.050939523
0.1117299 0.12177631

pre_layer.1.weight f4 [10]
00000000: 0cf2 8d3f a3a8 883f 7890 8e3f bf0a a83f
00000010: 9504 953f da8b a83f 2d23 893f 48aa 933f
00000020: abac 9a3f a27c 8b3f
1.1089492 1.0676464 1.1137838 1.312828 1.1642023 1.3167679 1.071386 1.1536341
1.2083944 1.089741

pre_layer.1.bias f4 [10]
00000000: aecf 1c3e b315 a7bd 8763 473b 249b 71bd
00000010: bc20 ed3d f6fa 7a3d 8a54 f1ba 17a5 b53d
00000020: d554 b23d f0f1 853d
0.15313599 -0.08158436 0.0030424313 -0.058985844 0.11578509 0.06127449 -0.0018412035 0.08869379
0.08707587 0.065402865

pre_layer.1.running_mean f4 [10]
00000000: 3a75 5c3e 0a72 ed3d 4bd3 9a3c a826 f23c
00000010: 7aec f1bd 4d22 3f3c b20b 373d 42a6 6a3d
00000020: 261a b23d 7aca 5c3e
0.21529093 0.11594017 0.01889958 0.029559448 -0.118126824 0.011665893 0.044688888 0.057287462
0.08696394 0.21561614

pre_layer.1.running_var f4 [10]
00000000: c6ac ef3e c4e5 0a3f 22fb be3d 00a8 183f
00000010: 7e84 063f da9c 5e3f 4028 b93d b997 083f
00000020: 35fc 8b3f c2ff b23f
0.46811503 0.54256845 0.093252435 0.5963135 0.5254592 0.86958086 0.0904088 0.5335651
1.0936342 1.3984301

pre_layer.4.weight f4 [16, 10, 3, 3]
00000000: c108 b8bd ddd7 95bc 4e19 3cbd 1751 ac3d
00000010: 24a1 503c 0248 9dbc 1538 e53d da95 52bd
00000020: f0e2 a5bc df60 16bd 8a89 bebc dd96 e63d
00000030: 78ef 11be 39b1 c4bd e59c 6d3c 01e9 e6bd
00000040: 98f8 b1bb cfcb d93c da08 ed3c 3380 bb3d
00000050: 0c96 e3bc 0fbf d83d 50b7 f53d 2131 bc3d
00000060: 329e 0a3e e570 b0bd 8aa5 8d3d fb58 4f3e
00000070: 3c61 fb3d 8fa2 a9bd ce46 94bd 5437 a53d
00000080: 7215 e63c 0880 273e 0bfa 2b3d f298 a33d
00000090: 0242 f7bd da19 bdbd c5d8 a8bd 6ef5 4fbe
000000a0: e6b4 323e f155 d8bd 6ffa 4c3d 0ed9 6e3e
000000b0: 2063 873d da12 96bd 9d3d 0fbe 0b36 323c
000000c0: b7aa 5e3d f1e3 1fbe aee3 97bd 1256 70bc
000000d0: 68ad 2c3d 7e75 b53d 0b0b 13bd c209 bcbd
000000e0: 1b75 163c 6281 ebbc 2e00 fabc efec a7bd
000000f0: cf94 12bb f816 2e3e afb1 c2bb ac5a 09bc
00000100: eed2 bc3d efd8 b53d 6e92 173c cf18 3cbd
00000110: ec73 c3bc 0844 013e 2a08 09bd ffcb bb3c
00000120: 3810 79be de6b 02be 379f 46bd 32eb 56be
00000130: 6b92 f8bd 13f9 e5bd cdc2 cbbb 4ce9 713d
00000140: eaec f13d 063a e1bd 604d 64bb 65f1 763d
00000150: 34b7 0dbd 04eb 163e 624f da3d 9ff2 efb8
00000160: 0368 263d 94d8 db3b 715f ee3d 1382 853d
00000170: 3780 e93d 17bb 67bd 327c f5bc 5601 933c
00000180: d66f 883c 2d90 3f3a 6464 863b efd0 c33d
00000190: 02ff 14be 515c 483c 73b7 86bc 959b 703d
000001a0: 6048 583d dbe3 773d 00d3 113e c1a6 4f3d
000001b0: bac4 f33d c338 2e3d 57d7 d03d 57c5 71be
000001c0: cba4 77be cf38 92bb 04e2 93bd 4c4b 87bd
000001d0: d5e0 dbbc cb41 4f3d 2d77 263b a0a9 163e
000001e0: e6da 71bc af69 1cbe 0630 af3d 9667 e53d
000001f0: 43c2 09bc 12da ae3d 84b7 2d3e d2ae c43d
00000200: 5d5f 333d 66e2 02be 4f94 37be 9e64 46bd
00000210: 5207 e13d 44dd 68bd 0688 bd3d 2e09 a63c
00000220: 9a1f 4abd e5ff 3fbd 4719 b4bd 47be 1cbe
00000230: c2d2 78bd b113 ec3d 728d 33bd c2ae 5a3d
00000240: 4574 083e e1d2 aa3d 4d26 a3bd d704 5fbd
00000250: 680e 853c 67e6 f43d 45c2 3f3d d1da d43d
00000260: d05b 6d3d b65a 52bd f5a1 f7bd 0d01 993c
00000270: 7ce6 43be e5e4 6abe 799e 53be be62 4c3c
00000280: b053 4ebd 418f a33a 584e 3cbd 9b16 813d
00000290: a293 003c abd4 e73c 82c6 40bc e2c9 baba
000002a0: 687c 2a3e bbc5 fbbc 13b8 ac3c 7263 033d
000002b0: 899c 3fbd 318a c5bd 809c 03bb 244a 8b3c
000002c0: 705b d1bc d3ab 963d bece 223d aa26 52bd
000002d0: 2718 25bd 1875 31bd 6a50 013e ae59 1f3d
000002e0: bcf7 22bb ee0f 203c 15fe f73c 7554 aa3d
000002f0: a36f 09be e760 c6bd a03a f7bc d1aa 0bbd
00000300: 39cb 453c 5691 67bd 2707 623d a485 10be
00000310: ecff 83bd 66bf 403d a928 423d c62a 2a3d
00000320: 22b5 443d 2365 baba b3a1 253d ab48 cb3d
00000330: d1ae bf3d 8171 953d b4db ea3d e85e 46bd
00000340: 6d65 c83c b794 e23d 1603 ccbb 3865 d4bd
00000350: b983 26bc dc5c 123e c5c0 473d 06ef 1e3d
00000360: b78a 033c b656 0ebd 9df6 3bbe ed03 123e
00000370: 3185 803d 9dc2 953d c392 283d db8c 033e
00000380: 3526 ba3d 80ce d23c 0038 09be 2e4d d43b
00000390: 2d8a 0dbe cc1a db3d b6ec 943d fa16 26bd
000003a0: af55 59bd 852b 673d 17d3 05bc 9909 edbc
000003b0: 687f 23bd 0f1d d93d a8ec 0dbe 687b eabd
000003c0: 19f0 a3bd 0e8e fabd 74ce 7fbd d666 0eba
000003d0: 8dd6 413c c21e ec3c 4a4e c8bc 3202 93bc
000003e0: 9ece dd3c 5777 833d b6f9 47bd e30c 763d
000003f0: c731 f2bc 49e8 4ebe c2bf 2abe 2812 23bc
-0.08986045 -0.018291408 -0.04592257 0.08413904 0.012733731 -0.019199375 0.111923374 -0.05141244
-0.020249814 -0.036713477 -0.023258943 0.11259244 -0.14251506 -0.09604115 0.014502739 -0.11274911
-0.005431246 0.026586441 0.028934885 0.091553114 -0.027781509 0.105833165 0.11997855 0.09189058
0.13536909 -0.08615283 0.0691634 0.20248787 0.12274405 -0.08282959 -0.072400674 0.080671936
0.028086398 0.16357434 0.041986506 0.079881564 -0.12073137 -0.092334464 -0.082444705 -0.20308468
0.1745182 -0.10563267 0.05004352 0.23324987 0.066107035 -0.073278144 -0.13988347 0.010877143
0.054362025 -0.15614296 -0.07416473 -0.014668958 0.04215756 0.088603005 -0.035899203 -0.09181549
0.009183194 -0.028748218 -0.030517664 -0.08199488 -0.002236653 0.1700095 -0.0059415917 -0.008383434
0.09219919 0.088792674 0.00925122 -0.045922097 -0.023858987 0.12623608 -0.03345505 0.022924421
-0.24322593 -0.1273646 -0.048491683 -0.20988157 -0.12137302 -0.11229148 -0.0062182904 0.05906038
0.11812766 -0.10997395 -0.0034836158 0.060288806 -0.034598544 0.14738089 0.10659672 -0.000114416
0.040626537 0.0067091677 0.11639298 0.0651895 0.11401408 -0.056574907 -0.029966448 0.017944973
0.01665489 0.00073075556 0.004101323 0.09561335 -0.14550403 0.012229041 -0.016444897 0.058742125
0.052803397 0.060520034 0.14240646 0.05069614 0.11902757 0.0425346 0.10197323 -0.23610435
-0.24183957 -0.0044623385 -0.072208434 -0.066061586 -0.026840607 0.050599854 0.0025400624 0.14713144
-0.014761662 -0.1527469 0.085540816 0.11201398 -0.008408132 0.08537687 0.16964537 0.09603657
0.043792117 -0.12781677 -0.17927669 -0.0484358 0.10987724 -0.05685164 0.0925446 0.02026805
-0.049346544 -0.0468749 -0.08793884 -0.1530696 -0.06074787 0.11527193 -0.043836065 0.05338932
0.13325603 0.08341003 -0.0796629 -0.054447975 0.016242221 0.11958008 0.04681613 0.103932984
0.057948887 -0.05135604 -0.12091438 0.018677259 -0.19130892 -0.22938879 -0.20665921 0.012474714
-0.05037278 0.0012478606 -0.045973152 0.0630314 0.007847698 0.02829965 -0.011766078 -0.001425084
0.1664902 -0.030733934 0.021083867 0.03207726 -0.046780143 -0.096454985 -0.0020082295 0.017003126
-0.025556296 0.073569916 0.039747946 -0.051306404 -0.040306237 -0.04332456 0.12628332 0.038903885
-0.00248669 0.009769423 0.030272523 0.0831689 -0.13421492 -0.096864514 -0.030179322 -0.03409845
0.012072378 -0.056535088 0.055182602 -0.1411348 -0.064452976 0.04705753 0.047402058 0.0415447
0.048024304 -0.0014220815 0.04043741 0.0992597 0.093595155 0.0729704 0.11467686 -0.048430353
0.024462426 0.11063521 -0.006225954 -0.103708684 -0.010163241 0.14293236 0.048767824 0.03880217
0.008028678 -0.034750663 -0.18355794 0.1425931 0.06275404 0.0731251 0.041155588 0.12846701
0.09089319 0.025733232 -0.13400269 0.006478927 -0.13822241 0.106984705 0.072717115 -0.040549256
-0.05306023 0.056437988 -0.0081680035 -0.02893524 -0.039916426 0.106012456 -0.13859808 -0.11449319
-0.08004779 -0.12234126 -0.06245275 -0.0005432194 0.011830938 0.02882326 -0.024451394 -0.017945383
0.027076062 0.06419247 -0.048822127 0.060070883 -0.029564751 -0.20205797 -0.16674712 -0.009953059

pre_layer.4.bias f4 [16]
00000000: 4244 ce3d 5ffb 24bd fe9c c4bc 3578 c63d
00000010: 1a44 4fbd f163 593d 97a2 2b3e 9e5e 073e
00000020: 06f2 b73d 1e8b d5bc 56a5 f43c fdf6 123d
00000030: c56f e4bd 174c 833d c672 f9bd c942 f4bc
0.10071613 -0.04027879 -0.024000641 0.096908964 -0.050602056 0.053073827 0.16761242 0.13219687
0.08981709 -0.026067313 0.029863995 0.035880078 -0.11154131 0.06410997 -0.121800944 -0.029817002

pre_layer.5.weight f4 [16]
00000000: f657 943f f75a 993f 942e 963f 94ed a93f
00000010: 9bc6 903f d61a 8f3f 273b 983f 6b4c 913f
00000020: 9938 8b3f 73bb 9b3f 5109 943f 1f8e 8b3f
00000030: 0be6 9d3f 1c18 8a3f 966f 913f d335 963f
1.1589344 1.1980885 1.1732965 1.3275628 1.131061 1.1180065 1.1893052 1.1351446
1.0876647 1.216658 1.1565343 1.0902747 1.2335829 1.0788608 1.1362178 1.1735176

pre_layer.5.bias f4 [16]
00000000: ed49 393e 9b61 9a3d 740b 5b3d 404f ad3d
00000010: f8e6 27be d492 fa3d f957 223e 1147 903d
00000020: acd9 a23d 59cd 1c3d 5910 363d e10d babd
00000030: c1b5 52bd 774f f2bd 7771 0b3d 1247 0c3e
0.18094607 0.07538148 0.05347772 0.08462381 -0.16396701 0.122350365 0.15853871 0.07044805
0.07951674 0.038281772 0.044449184 -0.090846784 -0.051442865 -0.11831563 0.034043755 0.13698986

pre_layer.5.running_mean f4 [16]
00000000: e19d 243e 10d0 2cbe 822d c4be a192 62be
00000010: 1bdb 0fc0 5279 dabd bd05 76be 98f7 903c
00000020: 783f af3f c300 83be 7b4c 07bf efd1 8dbf
00000030: a29c 74bf 3dfa 14bf d15e 50bf 8bae 8c3f
0.16075851 -0.16876245 -0.3831597 -0.22126247 -2.2477481 -0.10667671 -0.24025626 0.017696187
1.3691244 -0.2558652 -0.52851075 -1.1079692 -0.955515 -0.58194333 -0.8139468 1.0990766

pre_layer.5.running_var f4 [16]
00000000: f9f8 da3e 7c6f 5b3f 3489 073f 095f 473f
00000010: 0f37 4240 2d5d 913f 3a16 b43e be9b 553f
00000020: 2ab9 473f cb45 2a3f dc47 f73e 7943 8a3f
00000030: 4d9b 3a3f c31d cc3f bbfe c73f 2bd4 a23f
0.42768076 0.85716987 0.5294373 0.7787939 3.0346105 1.135656 0.35173208 0.8344077
0.7801691 0.66512746 0.48297012 1.0801841 0.7289322 1.5946583 1.5624613 1.2720999

pre_layer.7.weight f4 [32, 16, 3, 3]
00000000: f5d3 9dbd 28be f0bd 562c 5abd b1d6 48bd
00000010: aa74 0abd 2d21 08bc 70a6 23bc 8216 1fbd
00000020: 91bd 01be 4ebb b2bd 2aef 38bc 7e4a 8e3d
00000030: b0e3 2d3d ffbd bbbc 215c 1a3d cf0a ea3c
00000040: 109e 0a3c 7239 093d 4d3d 723c 3aa5 a83d
00000050: c57a 3a3d 8251 0a3d 731b 83bd a981 c33d
00000060: a4ff 6fbc 3d53 4fbd 29ef 0d3c 02cc da3c
00000070: 7832 143d 250a 4dbd e6ba 2abd 70cc ad3d
00000080: 7b96 aebd b92b d7bc dcc0 393d 9043 51bc
00000090: 96d6 6a3d 9697 2b3e 2b13 413d e454 05be
000000a0: 552d 9fbc 1d8a 8fbd f2fb 2f3d 2ac0 173e
000000b0: e716 e43d 99fc 9e3a 2819 a73d 6b22 9cbd
000000c0: ea76 49bd 887d d0bd bd02 27be 8c57 8abd
000000d0: 199c 88bd 045e 2bbd 98cb af3d aa4f ccbb
000000e0: 9b34 12bc 3a03 a3bd 8be9 acbd 1509 9fbd
000000f0: 97c4 a73d 5967 183d 151b 763d 5aae 90bc
00000100: a283 eabd a83a 823c b1e3 003d 829c 42bd
00000110: ad18 5fbb a72e dabc 4c6b 8c3d b77e 083c
00000120: ea0c 4b3b a2f1 513d c013 c83a 60d8 103d
00000130: 541e d9bd 5998 80bd 46fa f5bc 58eb 02bd
00000140: ebb8 86bd 6313 8cbc ed4a a239 0d87 c8bc
00000150: db43 9e3d be23 a83b 5ea9 803d a296 913d
00000160: 9cac 92bd c421 2bbc 01f8 37bd 530b 453d
00000170: 7f75 a03d 209e eb3d b0c1 be3d 3b57 16bd
00000180: f9d9 5fbd 01c0 27be 4d4f 903c 9c55 063e
00000190: 474f 093d 557e f63d 93c0 d13d 78df 5ebc
000001a0: a058 343e 79ab 20be 5008 1cbe 04bd 4dbd
000001b0: d623 2d3d 8fb1 683d ca46 79bd 1709 86bc
000001c0: 4ce7 bf3c f072 04bd 46a2 623d 9a0f 0abc
000001d0: 5c5a 883d 4f90 d63d b8db e73d e861 363c
000001e0: 26c1 5d3e 7ebc 423e b084 133d 7680 0e3d
000001f0: 2529 943b 3360 33bb af82 c8bd 326c 1fbd
00000200: 652d abbd be59 a6bd f50e 0cbd a214 8dbd
00000210: 2ca4 c83d 0406 5e3e f93e 363e bc5b 753d
00000220: 69c4 df3d 6a7a 18bd 62cc 873d 80b7 7e3d
00000230: 5133 12be 1ca1 96bd b2db 4cbd 9037 8fbc
00000240: 8164 a83d 5f2c 6bbd bb53 e33c fbe6 4f3e
00000250: 5cf3 ddba d4b1 063d 8f5e 883b 5712 813d
00000260: 3fb9 613c dcf6 a0bd 0446 80bd b10f e8bc
00000270: 319e 673e 0e55 733d 49b1 b53d b073 7f3d
00000280: e9b5 ab3d 0799 e33c 53e9 fa3d 1ef6 653d
00000290: ddbe d13d b2c6 f73d 6c3b 14ba e682 113e
000002a0: 0932 1e3e ea88 193e 3bfe 833d 8a86 c1bb
000002b0: c29e 9f3d 5722 56be 658d e0bd b9ae 93bc
000002c0: f20b 9ebd 3b85 253e 90b0 013d 42d0 073e
000002d0: b0af bebc 93bf 3c3d b542 afbc a929 073d
000002e0: 4e9d cabd 9987 1abd 2ac1 ee3d 02bb 423d
000002f0: 2e2f 883d c147 22bd c5e6 a13d ec3f 20bd
00000300: b5e1 edbd 8201 c63c 4aee 8f3c d9e5 c0bd
00000310: 36b8 b8ba 7d69 9abc 6245 8e3d daa2 793c
00000320: 8564 4c3c b32e 103d d655 c5bc 8d51 cdbc
00000330: 2284 963d 5970 a5bc 94e7 193c 8380 093e
00000340: bc5a a63b f964 a5bd a51e 013e 961d 9bbd
00000350: 0f6a d33b 7f84 e73d 9ea8 203e be64 a83c
00000360: 9225 6f3d 38a5 b13d 8319 a03d c4dc 95bd
00000370: e732 553d 8bf2 e6bc 439e a8bd 31f7 c23c
00000380: cb78 023d a2d3 223d 6838 21be feba 12bd
00000390: bf4b d43d b570 293e c386 1abc a555 483d
000003a0: 47ec 803c 8c9e e4bc 4fd9 98bd 3e3e f73c
000003b0: 180a 253d 679d 5b3d 0ada 9e3d 699b 96bb
000003c0: aefd 833d fc20 4f3b 61e2 943d 9cdf 933d
000003d0: 7347 4dbc 38b5 213d ca38 163d a6ba 313d
000003e0: aae1 8e3b ac5f 7a3d f932 273d 8548 203e
000003f0: 3232 943d 7afb 923c 4151 64bc 4f8e 24bd
-0.07706443 -0.117550194 -0.05326494 -0.04903287 -0.033802666 -0.008308691 -0.009988412 -0.038839824
-0.1266997 -0.08727132 -0.01128749 0.06947802 0.042453468 -0.022917746 0.037685517 0.028569607
0.008460537 0.03350205 0.014785123 0.082346395 0.04552724 0.03376914 -0.0640172 0.09546215
-0.014648352 -0.05061649 0.008662977 0.026708607 0.036180943 -0.050058503 -0.041682146 0.08486259
-0.085247956 -0.026265966 0.04534994 -0.012772456 0.05733355 0.16757044 0.04713742 -0.13020664
-0.019430796 -0.07008765 0.042964883 0.14819399 0.11137181 0.0012129723 0.08159095 -0.07623752
-0.04918567 -0.10180193 -0.16309638 -0.067549795 -0.06670398 -0.041837707 0.08583754 -0.0062350826
-0.008923675 -0.079596 -0.08442982 -0.07765404 0.081917934 0.037207935 0.06008442 -0.017661262
-0.11450888 0.01589711 0.031467143 -0.04751254 -0.0034041808 -0.026633574 0.06856403 0.008330992
0.003098304 0.05125583 0.0015264675 0.0353626 -0.10601488 -0.06279058 -0.030026566 -0.031962723
-0.06578239 -0.017099088 0.00030954872 -0.02447846 0.07727786 0.005131214 0.06282304 0.07108809
-0.07161829 -0.010445062 -0.04491425 0.048106503 0.078349106 0.11504769 0.09314287 -0.036704283
-0.054651234 -0.16381837 0.017615939 0.13118595 0.03352287 0.12035815 0.10241809 -0.013603084
0.17611933 -0.15690412 -0.15237546 -0.050229087 0.042270504 0.056809958 -0.060858525 -0.016361756
0.02342572 -0.032336175 0.055330537 -0.008426571 0.0665786 0.104767434 0.11321205 0.011131741
0.21655712 0.19017217 0.036015213 0.03479048 0.0045215064 -0.0027370572 -0.09790551 -0.038921542
-0.08358268 -0.08122586 -0.03419395 -0.06888701 0.09796938 0.21681982 0.1779746 0.059901938
0.10926134 -0.03722612 0.0663078 0.062186718 -0.14277388 -0.07354948 -0.050014205 -0.017482549
0.082222946 -0.057415362 0.027749887 0.20302956 -0.0016933489 0.032884434 0.004161663 0.06302326
0.013777076 -0.07859585 -0.062633544 -0.028327795 0.22618939 0.059407286 0.08871705 0.062366188
0.08384306 0.02778293 0.12251534 0.05614292 0.102414824 0.12098445 -0.00056546065 0.1421009
0.15448774 0.14993635 0.06444975 -0.005905931 0.077939525 -0.20911537 -0.10964469 -0.01802765
-0.07717122 0.16164105 0.031662524 0.13263038 -0.023277134 0.046081137 -0.021394113 0.032998715
-0.09893285 -0.037726972 0.11657937 0.047541626 0.06649624 -0.03961921 0.07905344 -0.03912346
-0.11615316 0.02417064 0.01756968 -0.0941884 -0.0014092985 -0.018849129 0.069468275 0.015236581
0.012475138 0.035200786 -0.024088781 -0.0250633 0.07349421 -0.020195173 0.009393591 0.1342793
0.0050767343 -0.080759 0.12609346 -0.075740024 0.006451852 0.113045685 0.15689322 0.02055585
0.05838544 0.08674091 0.07817366 -0.07317498 0.052050497 -0.028191825 -0.08233311 0.02379951
0.03185348 0.03975261 -0.15744174 -0.03582286 0.1036601 0.165469 -0.009431544 0.048909802
0.015737666 -0.027907632 -0.07463323 0.030181047 0.04029283 0.053616907 0.077564314 -0.004596163
0.0644487 0.0031605354 0.07269741 0.072203845 -0.012529242 0.039479464 0.036675252 0.043390892
0.0043603973 0.061126396 0.040820096 0.15652664 0.072361365 0.017942179 -0.013935388 -0.04017478

pre_layer.7.bias f4 [32]
00000000: 2bd9 2bbd dffd 9ebd b5c4 2b3d ea4a 8e3d
00000010: bef2 23bd ba82 853d 9809 2ebc 6683 813d
00000020: cee2 8e3b 37f2 423d 6d17 42bc aa76 ab3d
00000030: d47b c73d 5965 f73d 8dc4 863c 1d54 a33d
00000040: 20b1 8b3d 8d1d 9f3d 382b 16bd 0baf cc3d
00000050: 0e3d 7a3d 84be 5b3e 5228 3a3d 90d4 373d
00000060: db35 6e3d 2815 093e a18c 5c3d 57fe 733c
00000070: 21bf eb3c 134a 033e ba39 12bc 9600 863d
-0.041955154 -0.07763266 0.04193564 0.069478825 -0.04002642 0.06519075 -0.0106224045 0.063238904
0.0043605333 0.047594275 -0.011846405 0.08372243 0.09740415 0.120798774 0.016451145 0.07975028
0.06820893 0.07769308 -0.03666231 0.09994324 0.061093383 0.21459395 0.04544861 0.04488045
0.05815683 0.13386977 0.05384505 0.014892182 0.02877766 0.12821226 -0.008924896 0.065430805

pre_layer.8.weight f4 [32]
00000000: 1028 a43f e9d8 a43f 54b6 ca3f 4ba5 9f3f
00000010: bcaa ab3f 6af1 a83f dde3 aa3f 53fa b53f
00000020: 80b4 ad3f f564 a73f 3774 b13f 7a41 c73f
00000030: 8c27 a63f 55cc 983f 7267 af3f afdb a63f
00000040: b19b b13f a5c4 a13f 2015 8d3f 7ee0 a63f
00000050: 18aa ae3f 8132 993f 0ebb aa3f be43 ae3f
00000060: 64eb a43f 9346 913f f466 aa3f 26bf ab3f
00000070: 133a a53f f752 b13f cf1e a93f 0ef5 ad3f
1.2824726 1.2878696 1.5836892 1.2472318 1.3411479 1.3198674 1.3350788 1.4217018
1.3570709 1.3077685 1.3863591 1.5566857 1.2980819 1.1937357 1.3703444 1.3035792
1.3875638 1.2638136 1.1022072 1.303726 1.3645658 1.1968538 1.3338335 1.3614423
1.2884336 1.1349663 1.3312669 1.3417709 1.2908348 1.3853444 1.3212527 1.359041

pre_layer.8.bias f4 [32]
00000000: e40c 7a3e c88a 543e 4c98 32be 7380 bcbd
00000010: 4f0f 653e ac44 893e 8370 8c3e 8f01 8a3e
00000020: 778f 763e 821d 34be bace 893e 5c3a 04be
00000030: 7040 7f3e d37b 1b3d 0dc5 e4bd b4c4 723e
00000040: 6573 543e 966d 1ebe 6762 42be de20 823e
00000050: 4ff4 653e 52f1 2fbd 4ba5 8f3e 16eb 7f3e
00000060: 7e0c 4fbe 08be a33e 0ef8 04be b3fa 7c3e
00000070: c354 8a3e d2f9 7d3e c7bf 6d3e 30f4 703e
0.2441898 0.20756066 -0.17440909 -0.09204187 0.22369121 0.26810205 0.2742959 0.26954314
0.24078165 -0.17589381 0.26915532 -0.12912887 0.24926925 0.037959885 -0.11170397 0.23707849
0.20747145 -0.15471491 -0.1898285 0.254157 0.22456478 -0.04295475 0.28055796 0.24992022
-0.20219609 0.3198092 -0.1298525 0.24705009 0.27017793 0.2480233 0.23217689 0.2353065

pre_layer.8.running_mean f4 [32]
00000000: b719 693e 0365 833f 32a9 b9bf 38ea 81bf
00000010: bd16 0c40 8d86 fdbd e62e d43e 51c7 c33f
00000020: 4fc3 cb3d d9ab 33bf 9c7a 943f 94b0 eabe
00000030: db61 ed3f b5eb b03e a3d9 b8be ed59 d93e
00000040: 8a01 15be 3d09 6cbf 5814 09bf 33a8 93bf
00000050: 97bb 483d 7393 37be 351d 64be 4545 c0be
00000060: 9669 fabf ea47 b63e 4509 b8bf 0ae2 ab3f
00000070: 03f7 1bbe e4c7 cf3f a6b4 e43f d8f3 353e
0.22763716 1.0265201 -1.4504759 -1.0149603 2.1888878 -0.12379179 0.4144203 1.5295202
0.099493615 -0.70184094 1.1599917 -0.45837843 1.8545488 0.3455483 -0.36103544 0.4245142
-0.14551368 -0.92201596 -0.5354667 -1.1535705 0.049007025 -0.17927341 -0.22276767 -0.37552848
-1.9563472 0.3560174 -1.4377829 1.3428357 -0.15230946 1.6232877 1.786763 0.177688

pre_layer.8.running_var f4 [32]
00000000: 0c51 1e3f dbd8 8a3f b3d5 1c40 f388 0440
00000010: dd4d c83f 363e fc3f 7ad0 783f 29af d83f
00000020: 3778 1c40 600d a43f ec9e 9e3f 41e1 f13f
00000030: 2881 c73f 58ec a73f 03f5 6d3f 6bfe 953f
00000040: 241e 783f d7a7 1a40 a113 0340 3dcc 2a3f
00000050: d2a8 ac3f a851 d53f 08e3 6f3f 8247 7b3f
00000060: 399e 2540 e79e f23e a0bd eb3f 0727 ec3f
00000070: 4b63 203f ae38 a53f 7739 0c40 38b8 5440
0.6184242 1.0847429 2.4505432 2.0708587 1.5648762 1.9706485 0.9719311 1.6928455
2.4448373 1.2816582 1.2392249 1.8896867 1.558629 1.3119001 0.92951983 1.1718267
0.9692099 2.4164941 2.048073 0.6671789 1.348902 1.6665545 0.937058 0.9815599
2.5877821 0.47386858 1.8417244 1.844941 0.6265151 1.2907922 2.1910074 3.3237438

conv_con.weight f4 [1, 32, 1, 1]
00000000: 4857 8abe 134f c2be 69f8 343f 0b34 f53e
00000010: b845 c5be 3763 b2be 9c32 c1be 1f76 b6be
00000020: a144 a5be 681a f53e 9808 c8be bb5d 3d3f
00000030: ca14 dfbe 6704 d53e f4c2 013f 5953 e3be
00000040: 50a2 c9be c5d5 083f 74a7 b03e 1687 9ebe
00000050: 2789 f5be a3fb d03e 89d2 a9be ae3f acbe
00000060: 57f7 063f 7778 93be fab0 0e3f da4c d5be
00000070: 4200 a1be 09f0 c4be fa3d ecbe 805e dbbe
-0.27019715 -0.37950954 0.70691544 0.47891268 -0.38529754 -0.3484132 -0.37733924 -0.35636994
-0.32278922 0.4787171 -0.39069057 0.73971146 -0.43570548 0.4160492 0.506881 -0.44399527
-0.39381647 0.53451186 0.34502757 -0.30962437 -0.479562 0.40816984 -0.33168438 -0.33642334
0.5272116 -0.28802845 0.55738795 -0.41660196 -0.3144551 -0.38464382 -0.46141034 -0.42845535

conv_loc.weight f4 [4, 32, 1, 1]
00000000: 44bd 133c 23eb 84bc 93b1 87bb afba 63bd
00000010: 815c f73a ede2 babb ce4b a6bb c989 8b3c
00000020: a64f 813c 4a02 0dbb 09ea 26bc 8b13 f63b
00000030: 581c efbb 2c7f 06bd 90b1 9d3a d71c 213c
00000040: f5c7 3dbc 9207 763d faed 19ba c793 d33a
00000050: 15ea 3abc dee3 0c3d 08c5 d93b 4d43 b3bb
00000060: b8f1 293b 0809 de3b 62fa 08bc 0249 363c
00000070: 4a35 78bc 27ba 30bb 8f6f a33b 88ea 3cba
00000080: e7f8 dcbc df18 103c 574b 1ebc 74e1 a33d
00000090: 2de9 483b a737 dabb ce27 1e3c 1f9e 4abc
000000a0: ed7f ffbb 8eca 9abc 40e7 813c c90f ef3b
000000b0: b04a 30bb 698c 493c cfa3 a3bb d003 b8ba
000000c0: 4a40 c63c 1e68 9cbd e37e 0f3c 51e0 62b9
000000d0: d3c1 043c 0b34 44bc 3a8d 493b 0f68 f63c
000000e0: 76cc e5bc 8628 053d 1f9a ee3c 409d 16bb
000000f0: 786f 9c3b 514f a9bb 1d3a 08bc 626e 6b3c
00000100: 95ef 623d 7b4a 0fbd bf5a c2bb d21d 76bd
00000110: eb13 e7bc 9a9d 71bc 7190 99bc 0cf5 193d
00000120: be78 953c 332b 17bd 18bd 86bc abf4 a93b
00000130: 9629 913a ca7e 013b 4244 82bb 129d a63c
00000140: 2f21 d6bc aa83 7a3d 894e 73bd 87c6 e53c
00000150: a6ec 27bc 7ab0 803d f24e a23c 3573 333d
00000160: 7825 053c a7a9 563d 1013 50bc 82f3 d13b
00000170: 8194 943c 4142 883b af41 f43b e77b 3abc
00000180: 458c 393d c306 82bc c659 9dbc c0a0 f13d
00000190: bd08 0abd 86b0 a8bc 708e 0fbc 2f6d 883c
000001a0: 3c78 81bc e63d 88bd c891 5e3c 0eca 813b
000001b0: 8d56 4f3c 71a7 a83d f957 a1ba dd34 543c
000001c0: 881a 1d3c 473a 03be 2311 10be acf1 373d
000001d0: 0cc7 253c 8278 663d 8f94 9a3c 3e9f ce3d
000001e0: 075e 2abd 5aac c43d 5514 bd3d 3a9a 0039
000001f0: 845b 563d 3e2a 8f3b e313 31bb 636b 443c
0.009017292 -0.016225403 -0.0041410415 -0.055597957 0.0018872173 -0.005703321 -0.0050749546 0.017033475
0.01578505 -0.0021516257 -0.010187634 0.007509654 -0.00729708 -0.032836124 0.0012031067 0.009833536
-0.011583318 0.060065813 -0.0005871948 0.0016142064 -0.011408349 0.034397 0.0066458024 -0.0054706694
0.002593143 0.006775979 -0.008360477 0.011125805 -0.015149424 -0.0026966424 0.004987664 -0.0007206579
-0.026974155 0.008794992 -0.009661517 0.08001986 0.0030656562 -0.0066594663 0.009653045 -0.012366801
-0.0077972324 -0.018895414 0.015857339 0.007295583 -0.0026899986 0.012301543 -0.0049938927 -0.0014039222
0.024200577 -0.07637046 0.0087582795 -0.00021636604 0.008102852 -0.011975299 0.0030754344 0.030078916
-0.028051596 0.03250935 0.029126225 -0.0022981912 0.0047740303 -0.005166926 -0.008314637 0.014369579
0.055404264 -0.03498314 -0.005931228 -0.060087033 -0.02820774 -0.014747048 -0.018745633 0.03758721
0.01824605 -0.036906432 -0.016447589 0.0051866374 0.0011075016 0.001975941 -0.003975422 0.020338569
-0.02613887 0.06116072 -0.05940107 0.028048767 -0.0102492925 0.0628366 0.019813035 0.04381104
0.008126609 0.052407887 -0.012699857 0.006407202 0.018137218 0.0041582887 0.007454119 -0.01138208
0.045299787 -0.015872365 -0.019207846 0.11798239 -0.03369974 -0.020591985 -0.008761987 0.016653625
-0.015804403 -0.06652431 0.013584562 0.0039608544 0.012654913 0.08235062 -0.0012309543 0.012952057
0.009588845 -0.128152 -0.14069037 0.04490821 0.010118257 0.05626727 0.018869666 0.10088967
-0.041593578 0.09603186 0.09232394 0.00012264485 0.05233337 0.0043690493 -0.002701991 0.011988494

conv_loc.bias f4 [4]
00000000: f461 853c 2985 31bd 971f 47bd e5e1 403e
0.01628206 -0.043339882 -0.04861411 0.18836172
