Data/Params_2/R_max/r_net_26.pth (torch, 416743 bytes, 23 tensors)

pre_layer.0.weight f4 [28, 3, 3, 3]
0	0xbd9432bf	-0.072362415
1	0xbe0aa028	-0.13537657
2	0xbe0bafa9	-0.13641228
3	0x3e32137e	0.17390248
4	0x3c422998	0.011850737
5	0x3e0c1d14	0.13682967
6	0x3d3c649d	0.04599439
7	0x3ccfc75d	0.025363619
8	0x3cfff611	0.031245263
9	0xbe55b635	-0.20870288
10	0xbdeb5421	-0.11490656
11	0x3dad4fd0	0.08462489
12	0x3e3d25dc	0.18471473
13	0xbe0cef94	-0.13763267
14	0xbe2b4aa7	-0.16727696
15	0x3e083afd	0.13303752
16	0x3dd39be9	0.10332472
17	0xbce89b47	-0.028394355
18	0xbe4db231	-0.20087506
19	0x3d86fb13	0.06590857
20	0xbe2390f4	-0.15973264
21	0xbe000d9f	-0.12505196
22	0x3d8a48f2	0.067521945
23	0x3d26e8a6	0.040749215
24	0x3e3ab61c	0.18233532
25	0x3d3060dc	0.043061122
26	0x3e38aec0	0.18035412
27	0x3df4064b	0.11915263
28	0x3dca1a5a	0.098683074
29	0x3d74e7d9	0.05979142
30	0xbe1c5d9d	-0.15270086
31	0x3e0bfa71	0.13669755
32	0xbe25a841	-0.16177465
33	0xbe3dc449	-0.18531908
34	0x3d9fc0e9	0.078004666
35	0x3e1590da	0.14606038
36	0x3c9cc96c	0.019139014
37	0xbd691c35	-0.056911666
38	0xbe00fbff	-0.12596129
39	0x3be37243	0.0069411113
40	0x3e0ae24d	0.1356289
41	0xbd6cd253	-0.05781777
42	0x3d2c9e36	0.04214307
43	0xbd1f9906	-0.038964294
44	0x3ddaa75e	0.10676454
45	0xbdc50189	-0.096194334
46	0xbd92dc99	-0.07170982
47	0xbcfc6e78	-0.030814394
48	0x3dbbbcf2	0.09166898
49	0xbe25619e	-0.16150519
50	0x3deb3622	0.114849344
51	0x3df0ed39	0.11763997
52	0xbca08c8b	-0.019598266
53	0x3cb0465e	0.021517929
54	0xbd95d5a0	-0.07316136
55	0xbde06af2	-0.10957898
56	0x3c93c31d	0.018037373
57	0x3e3aa0ad	0.18225355
58	0xbe0a0c78	-0.13481319
59	0x3c517703	0.012784722
60	0xbcc328c6	-0.023823153
61	0x3e0a282d	0.13491888
62	0x3ba636d4	0.005072454
63	0xbc1a3553	-0.009412128
64	0x3e05ea90	0.1307776
65	0x3db1a5a6	0.08674173
66	0x3dc6d716	0.09708993
67	0xbd82ef3d	-0.06393287
68	0xbd8675e8	-0.065654576
69	0xbdf80e9d	-0.12112162
70	0x3e361900	0.17782974
71	0x3ddea6d4	0.10871664
72	0xbde38b23	-0.111105226
73	0xbdf408c3	-0.11915734
74	0xbe20c9fa	-0.15702048
75	0x3e0b28e9	0.13589825
76	0x3de0a8e2	0.10969712
77	0xbd646a0d	-0.0557652
78	0xbacbd12f	-0.0015550012
79	0xbdeacb43	-0.1146455
80	0xbdf93ef9	-0.12170214
81	0xbc3a736d	-0.011380059
82	0xbc96e9aa	-0.018421967
83	0xbdfdd2f8	-0.12393755
84	0xbdfea044	-0.12432912
85	0x3db650db	0.08902141
86	0x3e555783	0.20834164
87	0x3da5bbc5	0.08092455
88	0xbccec554	-0.025240578
89	0x3e261b75	0.16221412
90	0xbd4e62bc	-0.05038713
91	0xbe680b6c	-0.22660607
92	0x3e348d75	0.17632087
93	0xbdd479f6	-0.10374825
94	0xbe13d921	-0.14438297
95	0xbc8b3052	-0.016990814
96	0x3d1b6813	0.03794105
97	0xbb63b7c1	-0.0034746977
98	0x3e4a46d2	0.19753578
99	0x3e071b3b	0.13193981
100	0xbe2252b7	-0.15851866
101	0xbdf10711	-0.11768926
102	0x3d59002a	0.052978672
103	0xbe0893dc	-0.13337654
104	0x3db159d5	0.08659712
105	0xbe0f95d6	-0.14022002
106	0xbcc789cd	-0.0243577
107	0xbce801a5	-0.028321097
108	0xbd29f05c	-0.04148899
109	0x3d82db23	0.06389453
110	0x3da5ee97	0.08102148
111	0xbbadd5f2	-0.0053050453
112	0x3e1b9ad1	0.15195777
113	0xbe1566d5	-0.14590009
114	0x3dc56369	0.096381016
115	0x3e354a78	0.17704189
116	0xbe0bf7ac	-0.13668698
117	0xbe067d25	-0.13133676
118	0xbe08394d	-0.13303109
119	0x3e11c5ad	0.14235564
120	0x3ceb82da	0.028748918
121	0x3d76e642	0.060278185
122	0x3b8d3dd9	0.0043103513
123	0x3ccebb47	0.025235785
124	0xbd0a50ed	-0.033768583
125	0x3e050c4b	0.1299297
126	0x3e33b1ae	0.17548248
127	0x3e40366a	0.18770757
128	0xbb9aa71e	-0.004719629
129	0xbcd1a3fb	-0.025590887
130	0x3d576905	0.05259039
131	0xbd49dc7e	-0.049282543
132	0xbdc1e7ed	-0.094680645
133	0x3c65f60e	0.014035715
134	0x3e3d5918	0.18491018
135	0xbd22b778	-0.03972575
136	0xbd02f4e3	-0.031971823
137	0xbdd451a1	-0.10367132
138	0x3beef538	0.007292416
139	0x3d09b99d	0.03362428
140	0xbde35b79	-0.111014314
141	0x3cda126a	0.026620109
142	0xbe635ca5	-0.2220331
143	0xbd526a5e	-0.05137097
144	0xbd92118b	-0.07132252
145	0xbe1b4324	-0.15162331
146	0x3dc81b2c	0.097708076
147	0x3d6ae6e4	0.0573491
148	0x3e656592	0.22402027
149	0xbd83cb06	-0.06435208
150	0x3da57d9a	0.08080597
151	0x3deee347	0.116644435
152	0x3db13409	0.08652503
153	0x3d2dfb53	0.04247601
154	0xbdefb93a	-0.11705251
155	0xbd44d16a	-0.048051275
156	0xbdecea5e	-0.115681395
157	0x3e48acd3	0.19597177
158	0x3d7d2b7b	0.061809044
159	0x3d1fe527	0.039036896
160	0xbdd70026	-0.10498075
161	0x3deb71e7	0.114963345
162	0x3e2fd101	0.17169572
163	0x3e3709aa	0.1787478
164	0xbdb9dd0c	-0.090753645
165	0x3c3ca597	0.011514089
166	0x3e435dcb	0.19078748
167	0x3d95d472	0.07315911
168	0xbddbac7b	-0.107262574
169	0xbe02115d	-0.12701936
170	0xbe31b6a6	-0.17354831
171	0x3da5d16c	0.08096585
172	0x3dd4f6b0	0.103986144
173	0x3da6c8b6	0.08143751
174	0x3d27c47a	0.04095886
175	0x3df241ad	0.11828933
176	0x3cb4a0e2	0.022049371
177	0xbdc5e602	-0.09663011
178	0xbe4c8150	-0.19971204
179	0xbe6d872d	-0.23196097
180	0x3e2aeec1	0.1669264
181	0xb9ada4b6	-0.0003311985
182	0x3e0ae77c	0.13564867
183	0x3e35014b	0.17676274
184	0xbcf03496	-0.02932195
185	0xbcf93198	-0.030419156
186	0xbd878b4f	-0.06618368
187	0xbe7a3698	-0.24434888
188	0xbe23a6c4	-0.15981585
189	0x3e5617fb	0.20907585
190	0x3d6899ef	0.056787428
191	0x3e460a23	0.19339804
192	0x3d5dc2e3	0.054140937
193	0x3e28085a	0.16409436
194	0x3e38b552	0.18037918
195	0x3e01fbd0	0.12693715
196	0x3e12210d	0.1427042
197	0x3e13780d	0.14401264
198	0xbd9a7888	-0.07542521
199	0x3c89a382	0.0168016
200	0x3ce8543b	0.028360477
201	0x3d37f4db	0.044911247
202	0xbe02df49	-0.12780489
203	0x3df11036	0.1177067
204	0xbd56b538	-0.052418917
205	0x3d49bf7a	0.049254872
206	0xbe03e545	-0.12880428
207	0x3d82f032	0.0639347
208	0xbe42a96d	-0.19009943
209	0x3d304d93	0.04304273
210	0xbd04861f	-0.03235447
211	0x3e12af2d	0.14324637
212	0x3d8c0ce9	0.068384
213	0x3c361950	0.011114433
214	0x3e01e4fb	0.12685005
215	0xbe0d7186	-0.13812837
216	0x3d94f23d	0.07272766
217	0xbd8d07a3	-0.06886222
218	0xbd5aa936	-0.05338403
219	0x3d85cb9d	0.06532977
220	0xbe0cd924	-0.13754708
221	0xbd87421d	-0.06604407
222	0x3d77522c	0.0603811
223	0x3b8340bb	0.004005519
224	0xbbaa152a	-0.0051905112
225	0xbcbe7b4e	-0.023252156
226	0xbe4c42fc	-0.19947428
227	0xbe40c73f	-0.18826006
228	0x3e095fa4	0.1341539
229	0x3e349c06	0.17637643
230	0x3deb5fca	0.1149288
231	0xbd8af063	-0.067841314
232	0x3d69a859	0.057045314
233	0xba6b41ff	-0.0008974373
234	0x3d879a2a	0.06621201
235	0xbdcca1dd	-0.099918105
236	0x3cb915aa	0.022593338
237	0xbb28402e	-0.002567302
238	0x3ddf25c6	0.108958766
239	0x3c89fa3a	0.01684295
240	0xbbcd9fbe	-0.0062751463
241	0x3e21793e	0.15768906
242	0x3e11c5b0	0.14235568
243	0x3cec0a56	0.028813522
244	0xbde676bd	-0.11253116
245	0x3e14ba6a	0.14524236
246	0xbcc54f41	-0.024085643
247	0xbda2b7a6	-0.079451844
248	0xbe4bc45a	-0.19899121
249	0xbb9dff96	-0.004821728
250	0xbe26ae9f	-0.1627755
251	0xbdef9502	-0.11698343
252	0x3e33aa16	0.17545351
253	0x3daab8b4	0.083360106
254	0xbe1f7112	-0.15570477
255	0x3e6c9775	0.23104651

pre_layer.0.bias f4 [28]
0	0xbdd58f50	-0.10427725
1	0xbe26b5de	-0.16280314
2	0xbd9c11eb	-0.07620605
3	0x3d5da90e	0.0541163
4	0x3d2f9571	0.042867128
5	0x3cd708b2	0.026249263
6	0x3e5db361	0.21650459
7	0xbd9dc76a	-0.07704051
8	0x3cfeaecb	0.031089207
9	0x3e0da274	0.13831502
10	0x3d86ab5c	0.06575653
11	0xbde7a016	-0.11309831
12	0xbe4032fe	-0.18769452
13	0xbe24ed86	-0.16106233
14	0xbd334da9	-0.043775234
15	0xbdecc7fb	-0.11561581
16	0x3d5ae621	0.053442124
17	0x3e3b75c0	0.18306637
18	0xbe6829c5	-0.22672184
19	0xbce41093	-0.027839934
20	0xbc955e92	-0.018233571
21	0xbdbc7f5b	-0.09203979
22	0x3c913d1d	0.017729336
23	0x3e27a336	0.16370854
24	0x3be24144	0.006904753
25	0xbe33b6e5	-0.17550237
26	0xbe35f832	-0.1777046
27	0xbd3287ea	-0.04358665

pre_layer.1.weight f4 [28]
0	0x3f8c7ac5	1.0974966
1	0x3f73b0d2	0.9519168
2	0x3f85c0fd	1.044952
3	0x3f857b29	1.042821
4	0x3f7b86e8	0.98252726
5	0x3f86c1d9	1.0527908
6	0x3f9f0d92	1.2426016
7	0x3f80372d	1.0016838
8	0x3f767073	0.96265334
9	0x3f88810d	1.0664383
10	0x3f852d80	1.040451
11	0x3f88c4bf	1.0685042
12	0x3f7c1400	0.9846802
13	0x3f68d312	0.9094707
14	0x3f840174	1.0312943
15	0x3f6f6fda	0.93530047
16	0x3f851074	1.0395646
17	0x3f80d0ff	1.006378
18	0x3f6b3e9b	0.91892403
19	0x3f81eb7a	1.0149987
20	0x3f787bd8	0.9706397
21	0x3f839d6b	1.0282415
22	0x3f7e16ce	0.9925355
23	0x3f88aade	1.0677145
24	0x3f87ab53	1.0599159
25	0x3f80c917	1.0061368
26	0x3f81d648	1.0143518
27	0x3f782c8d	0.9694298

pre_layer.1.bias f4 [28]
0	0x3e087fae	0.13329956
1	0xbbb1db1c	-0.005427731
2	0xbd4d48e9	-0.05011836
3	0x3b2a5318	0.002598947
4	0xbd420c3f	-0.04737496
5	0xbb7a23dc	-0.0038168347
6	0x3e11d0c7	0.14239798
7	0xbc3a2275	-0.011360754
8	0xba271201	-0.0006373227
9	0x3d22d40b	0.039753
10	0x3b8720d7	0.004123788
11	0x3d59946a	0.053120054
12	0xbc8f1323	-0.01746518
13	0xbd54a619	-0.051916216
14	0xbbbeb153	-0.0058194785
15	0xbcfba392	-0.030717645
16	0x3d9c855c	0.07642624
17	0x3d08f09a	0.03343258
18	0xbd97bd91	-0.07409204
19	0xbcfe5bd6	-0.03104965
20	0xbc9fec3b	-0.019521823
21	0xbc1f939b	-0.009739782
22	0x3bb9e8c3	0.0056734993
23	0xbd1d5c07	-0.038417842
24	0x3cfc554a	0.030802388
25	0xbd31cdbf	-0.043409105
26	0x3c8dc2da	0.017304827
27	0x3be10b42	0.006867797

pre_layer.1.running_mean f4 [28]
0	0xbdc736a6	-0.0972722
1	0xbe1c474d	-0.15261574
2	0xbd860410	-0.065437436
3	0x3e0e08d2	0.13870552
4	0x3b131107	0.002244057
5	0xbde1c185	-0.11023239
6	0x3e7711f3	0.24127941
7	0x3d8a6567	0.06757622
8	0xbd71e38d	-0.0590549
9	0x3da1ea86	0.0790606
10	0x3d96ec57	0.07369297
11	0xbd6f65e9	-0.0584468
12	0xbea6505a	-0.32483178
13	0xbe7641df	-0.24048565
14	0x3e30b9e5	0.17258413
15	0xbe5bcf78	-0.21465862
16	0x39f589c1	0.00046832676
17	0x3e5f1006	0.21783456
18	0xbe71d958	-0.23618066
19	0xbc2c0d71	-0.010501252
20	0xbe57d10d	-0.2107584
21	0xbe3c9b76	-0.18418679
22	0xbdcc4b4f	-0.099753015
23	0x3e2b011f	0.16699646
24	0xbd4a08dd	-0.04932486
25	0xbebe2423	-0.37136945
26	0xbe5556a8	-0.20833838
27	0xbd94d12c	-0.07266459

pre_layer.1.running_var f4 [28]
0	0x3e1e7dc0	0.15477657
1	0x3de0fa8d	0.10985289
2	0x3d72a19c	0.059236154
3	0x3e7de43c	0.24794096
4	0x3f4810a1	0.78150374
5	0x3dc14f0a	0.09438904
6	0x3eb43c0d	0.35202065
7	0x400fdb6b	2.2477672
8	0x3e66497f	0.22488974
9	0x3f5799f2	0.84219277
10	0x3e9fdd0c	0.31223333
11	0x3e2b0b4c	0.16703528
12	0x3f9f9643	1.2467731
13	0x3f1dfe44	0.61716104
14	0x3fb92075	1.446303
15	0x3dc0a8fe	0.09407233
16	0x3e22cc37	0.15898214
17	0x3d7b0f39	0.061293814
18	0x3ee21a1e	0.4416055
19	0x3e0002de	0.12501094
20	0x3df30dff	0.11867904
21	0x3d9085cd	0.070567705
22	0x3e14508a	0.14483848
23	0x3dacabda	0.084312156
24	0x3dd1bde3	0.10241296
25	0x3e94b7a4	0.29046357
26	0x3d17620b	0.036958735
27	0x3f1e92d7	0.6194281

pre_layer.4.weight f4 [48, 28, 3, 3]
0	0x3c8424ac	0.016130768
1	0xbd17b7f3	-0.037040662
2	0x3ad62a51	0.0016339516
3	0xbcdb5896	-0.02677564
4	0x3d36be0a	0.04461483
5	0xbb337ce5	-0.0027387675
6	0xbd4ea809	-0.05045322
7	0x3d2051b2	0.03914041
8	0xbd3f5fb6	-0.046722136
9	0x3ce252f7	0.027627451
10	0x3d86391a	0.0655386
11	0x3d63ce29	0.05561653
12	0x3cf867d3	0.030322945
13	0x3cbe2412	0.023210559
14	0xbd20e439	-0.03928015
15	0x3cb2dddf	0.021834312
16	0x3cfb4375	0.030671814
17	0x3cc231d8	0.023705408
18	0xbd85867c	-0.065197915
19	0x3d8ceccf	0.06881105
20	0xbd83c441	-0.06433917
21	0xbcee21ba	-0.029068816
22	0x3da03856	0.07823245
23	0x3d8ab4d2	0.0677277
24	0xbc601206	-0.013676172
25	0xbd0ab646	-0.033865236
26	0x3bacfca9	0.005279143
27	0xbce75d19	-0.028242635
28	0xbbee0320	-0.007263556
29	0xbbebb534	-0.007193232
30	0xbd01ba56	-0.031671844
31	0xbd15b4f3	-0.03654952
32	0xbd8d183d	-0.06889389
33	0xbcb08f4a	-0.0215527
34	0xbd8d2e02	-0.06893541
35	0xbc621410	-0.013798729
36	0xbcdd7dea	-0.02703758
37	0xbd4310a2	-0.047623284
38	0xbcc5f870	-0.024166316
39	0xbbf19700	-0.007372737
40	0x3ca13ec1	0.019683244
41	0xbc2d1142	-0.010563197
42	0xbd4b586a	-0.049644865
43	0xbccd099b	-0.025028994
44	0xbc5c7dfa	-0.0134577695
45	0xbcf931a5	-0.03041918
46	0x3ce60040	0.028076291
47	0xbc2c579f	-0.010518937
48	0x3d85c65e	0.06531976
49	0x3cd0026a	0.025391776
50	0x3d2c3e86	0.042051814
51	0x3d76ac28	0.060222775
52	0xbd32c15b	-0.04364143
53	0xbcf51618	-0.029917762
54	0xbdc3f54d	-0.09568272
55	0xbda9943d	-0.08280227
56	0xbbe3f1d4	-0.0069563184
57	0xbdaa6be9	-0.083213635
58	0xbcdc26ad	-0.02687391
59	0xbd0f571e	-0.03499519
60	0xbba1b055	-0.0049343505
61	0x3ba4b0cb	0.005025958
62	0xbdb1fb44	-0.08690503
63	0xbc207abc	-0.009794887
64	0xbc56f14a	-0.013119051
65	0x3cac7594	0.02105216
66	0xbcebeca7	-0.028799368
67	0x3cdad50a	0.026712913
68	0x3c93db30	0.018048853
69	0xbd0c843a	-0.03430579
70	0x3cc68593	0.024233615
71	0x3d293547	0.041310575
72	0xbdb40380	-0.0878973
73	0xbd49ed56	-0.049298607
74	0x3cc679f2	0.02422807
75	0x3d6e5597	0.058187094
76	0x3cd90371	0.026490899
77	0x3d6cb0f9	0.05778596
78	0xbc95624e	-0.018235352
79	0xbc7d4729	-0.01545886
80	0x3d9f334c	0.07773456
81	0xbd5d3d7f	-0.054013725
82	0xbcf31ea7	-0.029677702
83	0xbcf02a8f	-0.029317169
84	0xbbcd98f3	-0.0062743365
85	0x3bf24516	0.0073934896
86	0x3d01632b	0.031588715
87	0x3d2a6f82	0.04161025
88	0x3d5b3fa6	0.053527497
89	0x3cd29747	0.0257069
90	0x3b8bd87e	0.0042677512
91	0x3c000dfe	0.007815836
92	0xbd94d8c7	-0.072679095
93	0xbd1e9808	-0.038719207
94	0xbd30e95c	-0.0431913
95	0xbd4fd1c7	-0.05073717
96	0xbb8b3aa2	-0.004248933
97	0xbad16060	-0.0015974157
98	0xbceaf966	-0.028683376
99	0x3ccf4b40	0.025304437
100	0xbcc5991c	-0.02412086
101	0x3c1c2b88	0.009531863
102	0xbc8aab17	-0.016927285
103	0x3ceeb419	0.029138612
104	0xbc86e442	-0.016466264
105	0xbd5c22d4	-0.053744152
106	0x3cbc6303	0.022996431
107	0xbd0613f2	-0.032733865
108	0xbd3e742d	-0.046497513
109	0xbd7bb945	-0.061455984
110	0xbd3f3409	-0.046680484
111	0x3d85339a	0.06503983
112	0xbc31ef15	-0.010860224
113	0x3d33d237	0.04390165
114	0x3d30d174	0.0431685
115	0xbc2ca362	-0.010537
116	0xbcf7dbb4	-0.03025613
117	0x3c65c6f6	0.014024487
118	0xbcb92c35	-0.022604087
119	0xbccc4c0c	-0.024938606
120	0xbd2fb69e	-0.042898767
121	0x3ce7a905	0.028278837
122	0xbd1c950a	-0.038228072
123	0x3d46e04e	0.048553757
124	0x3d3efdac	0.04662864
125	0xbcf66301	-0.030076506
126	0x3bd612e2	0.0065330127
127	0x3d214182	0.039369114
128	0xbb0715ce	-0.0020612362
129	0x3ada06b9	0.0016634084
130	0xbd78a05a	-0.0606998
131	0xbd6bbe26	-0.057554387
132	0x3ca4c6fb	0.020114413
133	0xbcd6f349	-0.026239054
134	0xbcaac12b	-0.020844063
135	0xbc96b979	-0.018398987
136	0x3cbafdbf	0.022826074
137	0x3c7b82db	0.015351023
138	0xbbc94416	-0.0061421497
139	0x3da67b68	0.081290066
140	0x3c9c2d15	0.019064466
141	0x3c5932e9	0.013256767
142	0xbd0239ad	-0.031793285
143	0x3d4e16d7	0.05031475
144	0x3d63cb25	0.055613656
145	0x3cdd1dee	0.02699181
146	0xbc9e16e4	-0.019298024
147	0x3c0ec203	0.008713248
148	0x3d282557	0.041051235
149	0x3cf535e7	0.02993293
150	0x3d3c943f	0.046039816
151	0x3d6fde6d	0.05856173
152	0x3d19c149	0.037537847
153	0xbc7acaae	-0.015307112
154	0xbd6c1b47	-0.0576432
155	0xbba8f91f	-0.0051566507
156	0xbd54ea69	-0.051981363
157	0xbd1c4c17	-0.038158502
158	0xbc3088b4	-0.01077478
159	0xbd610e47	-0.054945257
160	0xbca64578	-0.020296797
161	0xbd7a2a47	-0.061075475
162	0x3caf0ad6	0.021367472
163	0xbc23e6d0	-0.01000376
164	0xbd4441a8	-0.047914177
165	0x3d481236	0.048845492
166	0x3d0c2135	0.034211356
167	0xbc4746bf	-0.012162863
168	0xbd428a13	-0.04749496
169	0x3d1c15af	0.038106617
170	0x3d4a2bed	0.049358297
171	0xbd23c456	-0.039982162
172	0xbd334806	-0.04376986
173	0xbd6f3802	-0.058403023
174	0xbd06dc38	-0.03292486
175	0xbd5c4353	-0.053775143
176	0xb9b7a1d9	-0.00035025066
177	0x3d36057a	0.044438817
178	0xbd11f965	-0.03563823
179	0x3cb4604e	0.022018578
180	0x3dbb0c35	0.09133188
181	0x3cff9507	0.031198991
182	0xbbf2c93d	-0.0074092434
183	0x3ddc36da	0.107526496
184	0x3dcabe93	0.098996304
185	0x3da23800	0.079208374
186	0x3dd85775	0.10563556
187	0x3bccef27	0.006254095
188	0x3cc7620f	0.02433875
189	0xbd2c65a7	-0.04208913
190	0x3c176f7c	0.009242889
191	0x3d822438	0.063545644
192	0x3d853668	0.06504518
193	0x3ddf1187	0.10892015
194	0x3d18b4ea	0.037281908
195	0x3c948dd4	0.018134035
196	0x3dd85bc8	0.10564381
197	0x3d805fbb	0.06268259
198	0x3d282f5d	0.041060794
199	0xbcb0f982	-0.02160335
200	0x3a7fdd6b	0.0009760472
201	0x3d85f06b	0.06539997
202	0xbce1b411	-0.027551683
203	0xba34663e	-0.00068816904
204	0x3d4914b3	0.049092006
205	0x3da5f472	0.08103265
206	0x3da55c22	0.080742136
207	0x3c3ffdfc	0.011718269
208	0x3cc90e29	0.024542885
209	0x3c326935	0.010889341
210	0xbc4990d5	-0.012302597
211	0xbbe38993	-0.0069438904
212	0xbd3b27d2	-0.045692272
213	0xbd7739ae	-0.060357742
214	0xbd831c3a	-0.06401868
215	0xbd8e6741	-0.06953288
216	0xbd1e0931	-0.038582984
217	0xbc7f87cd	-0.015596342
218	0x3ca53bfc	0.020170204
219	0x3b9b1062	0.0047321776
220	0x3d049562	0.032369025
221	0xbbb6dd09	-0.0055805487
222	0x3d024732	0.03180618
223	0xbd6bcff3	-0.057571363
224	0x3c5cc33e	0.013474284
225	0x3cf4b4f2	0.029871438
226	0x3d64480a	0.055732764
227	0xbcc7ce2d	-0.024390304
228	0x3ca55bf6	0.020185452
229	0x3d87f650	0.06638777
230	0x3d480b89	0.048839126
231	0x3c7c2491	0.0153895775
232	0x3d867251	0.06564773
233	0x3d085315	0.03328236
234	0xbd7097d6	-0.058738552
235	0xbd1b1856	-0.037865005
236	0xbcca3fec	-0.024688683
237	0x3c96ec39	0.018423187
238	0xbd6eb4db	-0.058277946
239	0xbd6d1ee7	-0.0578908
240	0xbd0eb628	-0.034841686
241	0xbd4871c9	-0.04893664
242	0xbc878b13	-0.016545808
243	0xbd51084a	-0.051033296
244	0x3d42937b	0.04750393
245	0xbce8b7d4	-0.028407969
246	0x3bce381f	0.0062933112
247	0xbd62c4b9	-0.05536339
248	0xbd97b2a1	-0.07407118
249	0x3ad00ef1	0.0015873594
250	0xbcee9965	-0.029125879
251	0x3cd66d14	0.02617506
252	0x3c0e6025	0.008689915
253	0x3d85b791	0.06529153
254	0xbc926592	-0.017870698
255	0x3cbee80e	0.023304012

pre_layer.4.bias f4 [48]
0	0x3d43ecc3	0.047833215
1	0xbd559ca8	-0.052151352
2	0x3c822caa	0.015890438
3	0xbcaadf13	-0.020858323
4	0xbccf8c0e	-0.025335338
5	0xbd1896bc	-0.037253127
6	0x3c8007e0	0.015628755
7	0x3d268a6a	0.040659346
8	0xbd455d73	-0.048184823
9	0xbda11d9a	-0.07866974
10	0xbc6ba641	-0.0143829
11	0x3c1c20a7	0.009529269
12	0xbca9f2bb	-0.020745626
13	0xbd7c9df9	-0.061674092
14	0xbd7bfc3b	-0.061519843
15	0xbd98a441	-0.07453204
16	0xbd8afcbe	-0.06786488
17	0xbd21ff61	-0.03955019
18	0x3bf08ff2	0.0073413784
19	0x3d474149	0.048646245
20	0xbdb2e08d	-0.08734236
21	0xbd17a61d	-0.037023652
22	0xbd46531a	-0.048419096
23	0x3cfab813	0.030605352
24	0xbd321356	-0.04347547
25	0xbdab5b24	-0.08366993
26	0x3a7eabcc	0.0009714931
27	0x39f8689a	0.0004738018
28	0x3d5fffe0	0.05468738
29	0x3b0ee21f	0.002180226
30	0xbd2ac64e	-0.041693024
31	0xbbc80eab	-0.006105264
32	0xbd37523b	-0.044756155
33	0xbd5f702d	-0.05455034
34	0xbdf4a126	-0.11944799
35	0x3ce72521	0.028215947
36	0x3d80c9e0	0.062885046
37	0xbcd8bf8e	-0.026458528
38	0x3d137320	0.035998464
39	0x3cb0a094	0.021560945
40	0x3d0c8222	0.03430379
41	0x3c597b27	0.013273991
42	0xbd8f46d4	-0.06995931
43	0x3d24a52c	0.040196583
44	0x3cae9460	0.021310985
45	0x3d09f1d3	0.033677887
46	0x3d0368e8	0.03208247
47	0xbd2dee3e	-0.042463534

pre_layer.5.weight f4 [48]
0	0x3f7c7c03	0.98626727
1	0x3f7bfe3d	0.9843481
2	0x3f79f36a	0.97637045
3	0x3f79218e	0.97316825
4	0x3f8b3cde	1.087795
5	0x3f81db94	1.0145135
6	0x3f7e0097	0.9921965
7	0x3f812da7	1.0092057
8	0x3f82dc45	1.0223471
9	0x3f85d0da	1.0454361
10	0x3f845310	1.0337849
11	0x3f7fd0df	0.99928087
12	0x3f81e43e	1.0147779
13	0x3f7d8603	0.9903261
14	0x3f8092ff	1.004486
15	0x3f8aea52	1.0852759
16	0x3f856210	1.0420551
17	0x3f7b5f7e	0.98192585
18	0x3f7dfa5e	0.99210155
19	0x3f82cbea	1.021848
20	0x3f774d7d	0.9660261
21	0x3f7c0eda	0.9846016
22	0x3f789a4f	0.97110456
23	0x3f7b2927	0.9810967
24	0x3f786112	0.9702312
25	0x3f8d274e	1.102762
26	0x3f858bf4	1.0433335
27	0x3f854815	1.0412623
28	0x3f80986b	1.0046514
29	0x3f7dcbd5	0.9913915
30	0x3f802026	1.0009811
31	0x3f7f8764	0.99815965
32	0x3f833951	1.0251867
33	0x3f759405	0.95928985
34	0x3f762381	0.96147925
35	0x3f7ba93c	0.98305106
36	0x3f81c86a	1.0139287
37	0x3f8dd624	1.1080976
38	0x3f808620	1.0040932
39	0x3f8320e8	1.0244417
40	0x3f7f91f9	0.9983211
41	0x3f7c5914	0.9857342
42	0x3f78747d	0.97052747
43	0x3f83dbff	1.0301512
44	0x3f80b835	1.0056216
45	0x3f85d549	1.0455714
46	0x3f8181cd	1.0117737
47	0x3f8d6efc	1.1049495

pre_layer.5.bias f4 [48]
0	0x3bca04e0	0.006165132
1	0xbc8d4cf2	-0.017248604
2	0xbd0d051f	-0.034428712
3	0xbcf12603	-0.02943707
4	0xbc0aead1	-0.008478836
5	0xbbe280eb	-0.006912341
6	0xbcdaff17	-0.026732964
7	0xbc81bc36	-0.015836816
8	0x3afa38c0	0.0019090399
9	0xbce989ac	-0.02850803
10	0x3c5cea9d	0.013483671
11	0x3be60415	0.0070195296
12	0xbc4a3c5d	-0.012343493
13	0xbd6ebb7a	-0.05828426
14	0x3cd3c36a	0.025850017
15	0xbd155642	-0.036459215
16	0xbc9cf2e9	-0.019158797
17	0xbd94451a	-0.072397426
18	0xba6a5681	-0.00089392817
19	0x3c722539	0.014779382
20	0xbd59b32d	-0.05314939
21	0xbc3c28f3	-0.011484372
22	0xbd7f7fe2	-0.062377818
23	0xbd151a1e	-0.03640186
24	0xbd2113cd	-0.039325524
25	0xbd401b1c	-0.046900854
26	0xbd78a576	-0.06070467
27	0xbb080437	-0.0020754465
28	0x3b649cf5	0.0034883593
29	0xbd6da370	-0.058017194
30	0xbd5eb2f6	-0.05436989
31	0xbceb7ce6	-0.02874608
32	0xbd0bfc68	-0.03417626
33	0xbc0edf8d	-0.008720291
34	0xbd8f9be0	-0.07012153
35	0x3a63f9a3	0.00086965616
36	0x3c3cf88e	0.011533869
37	0xbbe552e7	-0.006998408
38	0xbcc8736d	-0.024469102
39	0xbccd387b	-0.025051346
40	0x3bd75f1a	0.0065726163
41	0xbd5cd400	-0.053913116
42	0xbd196fb9	-0.037460063
43	0x3bc07a5b	0.005873961
44	0xbcb7bf76	-0.022430163
45	0xbd1dea70	-0.038553655
46	0x3baf793a	0.0053550275
47	0xbcdaac2a	-0.026693422

pre_layer.5.running_mean f4 [48]
0	0xbf0c9e01	-0.54928595
1	0xbfe264b2	-1.768698
2	0x3ee47656	0.44621533
3	0xbdbf016b	-0.09326442
4	0xbf954cda	-1.1664078
5	0xc014e584	-2.3265085
6	0xbc7825aa	-0.015145699
7	0xbffeb93a	-1.9900277
8	0xbfe05c14	-1.75281
9	0xbfdfd2b0	-1.7486172
10	0xbfea3338	-1.8296881
11	0xc0206dcf	-2.5067022
12	0xbf452eec	-0.7702472
13	0xbfe446f7	-1.7834157
14	0xbf96e0e6	-1.1787384
15	0xbfd16b92	-1.6360953
16	0xbf86f593	-1.0543693
17	0xbfac4919	-1.3459808
18	0xbffdfe97	-1.984332
19	0xc04672e5	-3.1007626
20	0xbff29dc6	-1.8954399
21	0xbf8864a1	-1.065571
22	0xc05223dd	-3.283439
23	0xbfc100ec	-1.5078406
24	0x3e595ce8	0.21226847
25	0xbf9f48f0	-1.2444134
26	0xc026307d	-2.5967095
27	0xbfa8d6c9	-1.3190547
28	0xbf8f0d8c	-1.1176009
29	0xc0945744	-4.6356525
30	0xc04703a1	-3.1095965
31	0xc01ae8cd	-2.420459
32	0xc023cbf0	-2.5593224
33	0xbf9dac54	-1.2318215
34	0xc0032541	-2.0491488
35	0xbfd58b63	-1.6683162
36	0x3e68fba3	0.22752242
37	0xbf9e9a13	-1.239077
38	0x3d80ab73	0.06282701
39	0x3e4901d7	0.19629608
40	0xbf9aa3ab	-1.2081198
41	0xbfcaa0f1	-1.5830365
42	0x3ecf3636	0.40471047
43	0xbfff4f3e	-1.9946058
44	0xbefbfe6a	-0.4921754
45	0xc0ccf8a4	-6.4053516
46	0x3f484ddf	0.7824382
47	0xc0050aac	-2.0787764

pre_layer.5.running_var f4 [48]
0	0x3ff91eea	1.9462559
1	0x3f9b0e4c	1.2113738
2	0x3f283583	0.6570665
3	0x3fb0b9fb	1.3806757
4	0x3f2db72e	0.67857635
5	0x3fdb69d7	1.7141675
6	0x401febf2	2.498776
7	0x400b970c	2.1810942
8	0x40169364	2.352746
9	0x3fd7cebc	1.6859965
10	0x3fd1f3c7	1.640252
11	0x40131412	2.2981
12	0x3f72d60a	0.9485785
13	0x3fcf15ba	1.6178505
14	0x3f0933cc	0.5359466
15	0x3fd54cfc	1.6664119
16	0x400aadae	2.1668506
17	0x40152192	2.330174
18	0x3fe6fcaf	1.8045863
19	0x4068f78c	3.640109
20	0x3ff2ab8f	1.8958606
21	0x3f4c09e7	0.7970261
22	0x40872992	4.2238245
23	0x3f54229a	0.828653
24	0x3f288daa	0.6584116
25	0x3f81a4c6	1.012841
26	0x4087276b	4.223562
27	0x3fe85a7c	1.8152614
28	0x3fbf0d6d	1.4925972
29	0x40e34e98	7.103344
30	0x407f268b	3.9867275
31	0x4036b26b	2.8546398
32	0x405f89de	3.4927897
33	0x3f19e8cd	0.6012085
34	0x400bc9d7	2.1841943
35	0x3f86991a	1.0515473
36	0x3ec4c1ac	0.3842901
37	0x401f4169	2.4883673
38	0x3f11b9f8	0.5692439
39	0x3fb3174a	1.3991482
40	0x3f583684	0.84458184
41	0x402b30ed	2.6748612
42	0x3f854a63	1.0413326
43	0x4011cdb7	2.2781808
44	0x3f38e379	0.72222096
45	0x413e73b8	11.903252
46	0x3f6a5f71	0.9155188
47	0x40387c85	2.8826

pre_layer.8.weight f4 [64, 48, 2, 2]
0	0xbd7a521e	-0.06111347
1	0x3d736474	0.05942197
2	0x3d59a874	0.053139165
3	0x3cccb175	0.024986962
4	0x3cd8f5e6	0.026484441
5	0xbd589376	-0.052875005
6	0xbd6d39b3	-0.057916354
7	0xbd9e8772	-0.07740678
8	0xbd166535	-0.036717612
9	0xbd7cefad	-0.06175201
10	0x3d8ed09c	0.06973383
11	0x3d1d7072	0.038437314
12	0xbd367a06	-0.044549964
13	0xbd2177ee	-0.039421014
14	0xbcba2b19	-0.022725629
15	0xbc0302fa	-0.007996315
16	0x3c7f2e48	0.015574999
17	0x3c1c82da	0.009552682
18	0xbc39a825	-0.011331593
19	0x3d1f15f9	0.038839314
20	0x3be76e03	0.007062675
21	0x3b00755c	0.0019601202
22	0x3daeddaa	0.08538373
23	0x3c9a259d	0.018816764
24	0xbd130578	-0.035893887
25	0x3d21805b	0.03942905
26	0x3cbf6731	0.023364635
27	0xbd925cd8	-0.07146615
28	0x3d82a347	0.06378799
29	0xbd04fa22	-0.032465108
30	0x3c2755c4	0.010213319
31	0xbcfe5077	-0.031044228
32	0xbd36e02f	-0.044647392
33	0xbd8a6674	-0.06757823
34	0x3d979f87	0.07403474
35	0x3d059f67	0.03262272
36	0xbd3b7aae	-0.045771293
37	0x3d2361c9	0.039888177
38	0xbd52ae8b	-0.05143599
39	0xbb4d7df2	-0.0031355587
40	0xbdaaaa1b	-0.08333226
41	0xbd5325cb	-0.051549714
42	0xbce79fa8	-0.028274372
43	0xbdc97ea9	-0.09838612
44	0xbc947d27	-0.018126084
45	0xbce68b5a	-0.02814262
46	0xbd0be9a9	-0.034158383
47	0x3d00ec56	0.031475388
48	0x3d073cd2	0.033016987
49	0x3cf18d37	0.029486282
50	0xbca43545	-0.020044932
51	0x3d0fed4d	0.035138417
52	0x3d5ada46	0.053430818
53	0x3d6301a8	0.0554215
54	0x3dc77a20	0.0974009
55	0xbc145165	-0.009052609
56	0xbce3f11a	-0.027824927
57	0x3d6899c6	0.056787275
58	0x3cfe068a	0.031008977
59	0xbd1284cb	-0.035771172
60	0x3cb76852	0.022388611
61	0xbd157736	-0.03649064
62	0xbdb5f25b	-0.08884116
63	0x3c920505	0.01782466
64	0xbb2b3034	-0.002612126
65	0xbd7d58da	-0.061852314
66	0xbd5926b3	-0.053015422
67	0x3d91331d	0.07089827
68	0xbc9d3de7	-0.019194556
69	0xbc82fd4a	-0.015989918
70	0xbb1df619	-0.0024102984
71	0xb68a3cdc	-4.1198055e-06
72	0xbd90c6d7	-0.07069176
73	0x3c033093	0.008007186
74	0x3d76110a	0.060074843
75	0xbb15ec8a	-0.0022876584
76	0xbd53434d	-0.051577855
77	0x3d6c8ae4	0.057749644
78	0x3cf91b51	0.030408533
79	0x3dd405df	0.10352682
80	0x3c026d3f	0.007960617
81	0xbd70b395	-0.058765013
82	0x3d92fb57	0.071768455
83	0xbb40a831	-0.0029397125
84	0x3d3629d8	0.0444735
85	0x3a156e24	0.0005700311
86	0xbcf58ef6	-0.029975396
87	0xbd2a409c	-0.041565523
88	0x3d4e6f18	0.050398916
89	0xbd905101	-0.070467
90	0x3d47ce97	0.048781004
91	0xbd7c06fa	-0.06153009
92	0x3d63bbe8	0.055599123
93	0x3d0791f4	0.033098176
94	0xbd830e1f	-0.06399178
95	0x3c0f3a41	0.008741916
96	0xbd8c9abc	-0.06865451
97	0xbd6d08b8	-0.057869643
98	0xbd1b0b2e	-0.03785246
99	0x3d32b18c	0.043626353
100	0x3cbf5e4e	0.023360398
101	0xbd430c7c	-0.047619328
102	0xbd39082e	-0.045173816
103	0xbc93423f	-0.017975925
104	0xbcc1d5e0	-0.023661554
105	0xbca261ef	-0.019822089
106	0xbdb60313	-0.08887305
107	0xbd44d524	-0.04805483
108	0xbd8acf8a	-0.06777866
109	0x3d6120f6	0.054963075
110	0x3d23fa4b	0.04003362
111	0xbbb4ebc0	-0.0055212677
112	0xbc88ac7d	-0.016683811
113	0x3ce5efe2	0.028068487
114	0xbd9f82c2	-0.07788612
115	0xbcd8faa6	-0.026486706
116	0xbc7e9820	-0.015539199
117	0xbc7e39e9	-0.015516737
118	0x3d4cca4a	0.049997605
119	0x3d7baf70	0.061446607
120	0xbd83379a	-0.064070895
121	0x3c1c1233	0.009525823
122	0xbd6e5486	-0.058186077
123	0xbd48c816	-0.04901894
124	0xbd6bfa8a	-0.05761198
125	0x3c154bfe	0.009112356
126	0xbc557326	-0.013027942
127	0x3d8cec4a	0.06881006
128	0x3c9660c9	0.018356698
129	0xbc5bd531	-0.013417528
130	0xb725762d	-9.862281e-06
131	0xbc9c2af1	-0.019063445
132	0x3d70a9e6	0.058755778
133	0x3c546a59	0.012964808
134	0x3c3955f8	0.011312
135	0xbd2638c6	-0.040581487
136	0x3d7ca51b	0.061680894
137	0xbd25f235	-0.04051419
138	0x3cf3b502	0.029749397
139	0xbd7dfdaa	-0.06200949
140	0xbd575c6b	-0.05257837
141	0x3d636426	0.05551543
142	0xbdb1b753	-0.086775444
143	0xbccb29a3	-0.024800127
144	0xbd15c5d5	-0.03656562
145	0xbca9f0bf	-0.02074468
146	0xbcb780cc	-0.022400282
147	0xbdc772ad	-0.097386695
148	0x3d93642c	0.07196841
149	0x3d5ac2fd	0.05340861
150	0x3d01f671	0.031729165
151	0x3d67c144	0.056580797
152	0x3d5a135c	0.05324112
153	0xbd10a672	-0.035314985
154	0xbccee8bf	-0.025257466
155	0xbd9a6b58	-0.075400054
156	0x3d1258aa	0.035729088
157	0xbc4f7d9c	-0.012664225
158	0xbcd18553	-0.02557627
159	0x3d2a7d49	0.041623387
160	0x3d1f8a5e	0.038950317
161	0xbcc5e782	-0.024158243
162	0xbd5f9deb	-0.05459396
163	0xbd98261e	-0.07429145
164	0x3da4205e	0.08013986
165	0xbd023546	-0.031789087
166	0xbcb8bac2	-0.02254999
167	0xbc773a6a	-0.015089611
168	0x3caccf64	0.021094985
169	0xbd4648b4	-0.04840918
170	0x3d3230e4	0.043503657
171	0xbd37ee03	-0.04490472
172	0x3da49c2d	0.08037601
173	0xbc01c884	-0.007921342
174	0xbda31592	-0.079630986
175	0xbdb42272	-0.087956324
176	0x3dafd74e	0.08585988
177	0x3d2ad580	0.041707516
178	0xbd1bf1e0	-0.038072467
179	0xbd8ad6ef	-0.067792766
180	0xbc40ae68	-0.011760332
181	0x3da85717	0.08219736
182	0xbc084294	-0.008316655
183	0x3bdd05db	0.006745083
184	0xbd86ea3f	-0.06587648
185	0xbcb755ab	-0.022379717
186	0x3cbe72d8	0.023248121
187	0xbce36247	-0.027756823
188	0x3da7aa63	0.081867956
189	0xbbcacf86	-0.0061892895
190	0x3cca006a	0.0246584
191	0x3d2589f5	0.04041477
192	0x3d1d442e	0.0383951
193	0x3c915bae	0.017743912
194	0x3d09c011	0.033630434
195	0x3d9370c8	0.07199246
196	0x3be16e7d	0.0068796263
197	0xbcdfdda9	-0.027327375
198	0xbd64031a	-0.05566702
199	0x3c21b472	0.009869682
200	0x3ade20ba	0.0016947009
201	0x3a5c4171	0.00084020855
202	0xbb7aaf60	-0.0038251504
203	0xbccd35f6	-0.025050145
204	0x3ca1ab9e	0.019735154
205	0x3ceaaefc	0.028647892
206	0xbb178255	-0.0023118455
207	0xbd736484	-0.05942203
208	0x3d0e2f66	0.03471317
209	0x379576a7	1.7817436e-05
210	0x392e7740	0.00016638357
211	0x3b5f44a6	0.0034068017
212	0xba26806f	-0.00063515356
213	0xbc21bfd0	-0.009872392
214	0xbd0d59c1	-0.034509424
215	0x3d4c3d43	0.04986311
216	0xbd7d0db0	-0.06178063
217	0x3cf8ec82	0.030386213
218	0x3d925c8d	0.07146559
219	0x3be9a202	0.0071299085
220	0x3d8f01f0	0.069827914
221	0x3daea8a3	0.08528259
222	0x3de2bbe3	0.11070993
223	0xbc515fc5	-0.012779181
224	0xbb79f45e	-0.003814004
225	0xbc52ec31	-0.012873695
226	0xbcee6c37	-0.029104335
227	0xbd1a2b4d	-0.03763895
228	0x3d18503d	0.037185896
229	0xbc88028b	-0.016602775
230	0x3d8d3a56	0.06895892
231	0xbd31f0e4	-0.04344262
232	0x3d24ac76	0.040203534
233	0xbc1b9000	-0.0094947815
234	0xbcae6e70	-0.021292895
235	0xbc1c28a6	-0.009531176
236	0xbdaad5ce	-0.08341561
237	0xbd6bcd2d	-0.057568718
238	0x3d943385	0.07236389
239	0x3d8535ce	0.06504403
240	0xbd05a069	-0.032623682
241	0xbd668127	-0.056275513
242	0x3c5fbae4	0.013655398
243	0xbd8fab1b	-0.07015058
244	0x3d2065f9	0.03915975
245	0xbd1770f6	-0.036972962
246	0x3d63f73d	0.055655707
247	0x3d587a3b	0.052850943
248	0x3be83b3e	0.0070871403
249	0x3c822625	0.01588733
250	0xbd52a256	-0.051424347
251	0xbd16cb95	-0.036815245
252	0xbb33a878	-0.0027413648
253	0xbcd3c9f6	-0.025853138
254	0x3dfd1e70	0.12359321
255	0xbd422ba4	-0.0474049

pre_layer.8.bias f4 [64]
0	0x3d921bea	0.071342304
1	0x3cbb1a06	0.022839557
2	0xbd1efa85	-0.038813133
3	0xbd7ec579	-0.062200043
4	0xbcfa5993	-0.03056029
5	0x3d181042	0.03712488
6	0x3d248712	0.040167876
7	0xbd13ce01	-0.036085133
8	0x3d8d085a	0.068863586
9	0x3b00715a	0.0019598813
10	0x3c79024e	0.015198303
11	0x3baea210	0.005329378
12	0xbd24abeb	-0.040203016
13	0x3d7b8f00	0.061415672
14	0x3d9228be	0.07136677
15	0xbd528d49	-0.05140427
16	0xbd5f6a90	-0.054544985
17	0xbcd26473	-0.025682664
18	0x3d5e2821	0.05423749
19	0x3d3f2b0a	0.046671905
20	0x3d03cd44	0.03217818
21	0x3d3b080c	0.04566197
22	0x3d7e48c5	0.062081117
23	0x3c023c5f	0.007948964
24	0xbcc51924	-0.02405984
25	0x3dc18e3a	0.09450956
26	0x3dc66cc5	0.09688715
27	0x3d60de0b	0.054899257
28	0xbbc9e09f	-0.00616081
29	0x3d314b89	0.043284927
30	0x3daafb7c	0.08348748
31	0xbd41657b	-0.04721592
32	0x3c5b8f0d	0.013400805
33	0x3d5d2a26	0.053995274
34	0xbb8cd17b	-0.004297433
35	0xbd8277a7	-0.06370478
36	0x3b6a75ff	0.0035775898
37	0x3d57b614	0.052663878
38	0x3c96dd4e	0.018416073
39	0x3cadb17e	0.021202799
40	0xbcab529f	-0.02091342
41	0xbb76498c	-0.0037580458
42	0x3c03c0bb	0.008041556
43	0xbcf56403	-0.029954916
44	0xbc1f6ccf	-0.009730532
45	0xbc99b1de	-0.018761571
46	0x3d3250b1	0.043533985
47	0x3d1ee3d3	0.03879149
48	0xbc8d2b28	-0.017232493
49	0xbd6e44c3	-0.058171045
50	0x3d0bfaca	0.034174718
51	0xbd4d79ca	-0.050164975
52	0xbccdd148	-0.025124207
53	0x3c911af0	0.01771304
54	0xbb5ac0c1	-0.003337905
55	0x3ca368df	0.019947467
56	0x3cbe1732	0.02320442
57	0xbd581ace	-0.052759938
58	0xbd037a3c	-0.032098994
59	0xbda7de11	-0.08196653
60	0x3d469401	0.04848099
61	0xbd5fef9c	-0.05467187
62	0xbd2c48ae	-0.0420615
63	0x3d64f380	0.055896282

pre_layer.9.weight f4 [64]
0	0x3f80f51a	1.0074799
1	0x3f8216cc	1.0163207
2	0x3f778e7a	0.96701777
3	0x3f809fef	1.0048808
4	0x3f7d2867	0.98889774
5	0x3f845e93	1.0341362
6	0x3f7dbdd2	0.9911777
7	0x3f85bf22	1.0448954
8	0x3f82ab79	1.0208579
9	0x3f7b6984	0.9820788
10	0x3f7f812c	0.99806476
11	0x3f8587bd	1.0432049
12	0x3f81a3ad	1.0128075
13	0x3f829ee9	1.0204746
14	0x3f8049cc	1.0022521
15	0x3f832689	1.0246135
16	0x3f83035d	1.0235401
17	0x3f81e5d9	1.0148269
18	0x3f732ca1	0.94989973
19	0x3f8806ea	1.062711
20	0x3f8071f8	1.003478
21	0x3f759997	0.95937485
22	0x3f8281be	1.0195844
23	0x3f825e83	1.0185093
24	0x3f83cb7b	1.0296472
25	0x3f792b20	0.9733143
26	0x3f7c2270	0.9849005
27	0x3f7eb19c	0.9948976
28	0x3f83b55b	1.028972
29	0x3f7d9138	0.9904971
30	0x3f7f88d6	0.9981817
31	0x3f827b3f	1.0193862
32	0x3f84d11c	1.0376315
33	0x3f7ed813	0.99548453
34	0x3f86c1f7	1.0527943
35	0x3f8260c8	1.0185785
36	0x3f84b382	1.0367281
37	0x3f766c0a	0.96258605
38	0x3f827f7f	1.0195159
39	0x3f772924	0.9654715
40	0x3f809341	1.0044938
41	0x3f83185b	1.0241808
42	0x3f7bb690	0.98325443
43	0x3f72a407	0.94781536
44	0x3f862473	1.0479873
45	0x3f8c7b5f	1.097515
46	0x3f83d3be	1.0298994
47	0x3f840023	1.0312542
48	0x3f80133f	1.0005873
49	0x3f89b6d4	1.075892
50	0x3f7424b2	0.9536849
51	0x3f8a9fe1	1.0830041
52	0x3f7d3e7e	0.9892348
53	0x3f801180	1.000534
54	0x3f8067e3	1.0031704
55	0x3f7e165a	0.99252856
56	0x3f800ff4	1.0004869
57	0x3f7c26cd	0.98496705
58	0x3f845b2d	1.0340325
59	0x3f7ed43a	0.9954258
60	0x3f7fbb0b	0.9989478
61	0x3f87028d	1.0547653
62	0x3f80c9c6	1.0061576
63	0x3f7e1846	0.9925579

pre_layer.9.bias f4 [64]
0	0xbc09fd47	-0.008422202
1	0x3b6a92e2	0.0035793115
2	0xbd1a7b68	-0.037715346
3	0xbbd6acda	-0.006551367
4	0x3bc41ded	0.0059850127
5	0xbd0649f3	-0.032785367
6	0xbc91d45e	-0.01780146
7	0xbc9d0805	-0.019168863
8	0x3d52fbf1	0.0515098
9	0xbd8dffdd	-0.06933568
10	0xbc93aeb4	-0.01802764
11	0xbcd67e05	-0.026183138
12	0xbcc05c07	-0.023481382
13	0x3d0ad178	0.03389117
14	0xb9e8c01a	-0.00044393615
15	0x3c6f9afc	0.0146243535
16	0xbc2123e1	-0.009835214
17	0xbb5d0051	-0.0033722112
18	0x3b8a53c4	0.0042214114
19	0x3cdab690	0.02669838
20	0xbd09d105	-0.033646602
21	0x3bfd6c5b	0.0077338642
22	0xbc15e873	-0.0091496585
23	0xbc81ad47	-0.015829695
24	0xbc8be536	-0.01707707
25	0x3cf67940	0.030087113
26	0x3d4e11f3	0.050310086
27	0xbcad29c2	-0.021138076
28	0xbcb8d295	-0.02256135
29	0xbbeba58e	-0.0071913665
30	0xba7fff14	-0.00097654876
31	0xbd206046	-0.039154314
32	0xbc2ba73f	-0.010476886
33	0x3c178e62	0.009250255
34	0xbccec5eb	-0.025240859
35	0xbc9cd518	-0.01914458
36	0x3d2039cd	0.039117623
37	0x399a4577	0.00029424924
38	0xbbcf0b74	-0.006318504
39	0xbbdd814f	-0.0067597996
40	0xbc86b7cc	-0.016445063
41	0x3cb0d03d	0.02158367
42	0xbc86fc93	-0.016477859
43	0xbc843757	-0.01613967
44	0x3c8104b9	0.015749322
45	0x3d88f4ba	0.06687303
46	0xbc9a59f9	-0.01884173
47	0xbc8d565c	-0.017253093
48	0x3d5bf499	0.053700063
49	0x3bf18fec	0.007371893
50	0xbc85b8ee	-0.016323533
51	0xbc08bd07	-0.008345849
52	0xbd1f0b07	-0.038828876
53	0xbc1f6ea2	-0.009730967
54	0x3c30ec38	0.010798506
55	0x3c782d99	0.01514759
56	0x3caf38a3	0.021389311
57	0xb846facd	-4.7440455e-05
58	0x3aadc28e	0.0013256834
59	0xbca50749	-0.020145075
60	0xbcb47b9b	-0.022031596
61	0x3cae7b38	0.02129899
62	0xbc5402d9	-0.012940132
63	0xbce74366	-0.02823038

pre_layer.9.running_mean f4 [64]
0	0xbf24001a	-0.64062655
1	0x3ea0399b	0.3129395
2	0xc013c464	-2.3088617
3	0x3f893af0	1.0721111
4	0xbf4c05bd	-0.79696256
5	0xbd9f7a0c	-0.077869505
6	0x3f5b7c2e	0.8573636
7	0xbf2ff519	-0.68733364
8	0x3f7ebdc8	0.99508333
9	0xc0367af6	-2.851255
10	0xbfc2e649	-1.5226527
11	0xbf522ca8	-0.8209939
12	0x3d920c85	0.07131294
13	0xbf105a2b	-0.56387585
14	0xbe847f62	-0.25878435
15	0xbfb405eb	-1.4064306
16	0xc006a209	-2.1036398
17	0x3f04b2ac	0.5183513
18	0xc006800f	-2.101566
19	0xbe661795	-0.22469933
20	0xbf5a50af	-0.85279363
21	0xbea87841	-0.32904246
22	0xbf031b2a	-0.51213324
23	0xbf1a70de	-0.6032847
24	0xbf801eb7	-1.0009373
25	0x3d244fb8	0.04011509
26	0x3fe24495	1.767718
27	0x3f2206c6	0.63291585
28	0xbf3a5d41	-0.72798544
29	0x4005e6b6	2.0922065
30	0x3fc2c20b	1.5215467
31	0xbf153e40	-0.5829811
32	0x3f0e55df	0.5559978
33	0xbf915200	-1.135315
34	0xbee05ead	-0.43822232
35	0xbf9ba24d	-1.2158905
36	0x3f488317	0.7832503
37	0x3f486961	0.78285795
38	0xbf6ef14f	-0.9333696
39	0xbf6680c4	-0.9004023
40	0xbeff9901	-0.4992142
41	0xbf06a576	-0.52596223
42	0xbeb818cd	-0.35956421
43	0xbf5b8eb1	-0.85764605
44	0xbf5e872b	-0.86925
45	0x3d59059b	0.05298386
46	0x3dfa34d9	0.12217111
47	0xbe914b07	-0.28377554
48	0xbd54a2b0	-0.051912963
49	0xbf9d0504	-1.2267156
50	0xc01df6d8	-2.4681911
51	0xbecaafe9	-0.39587334
52	0xbeacba45	-0.33735862
53	0xbf1cfa23	-0.6131918
54	0x3f87c27a	1.0606225
55	0xbea616af	-0.3243918
56	0xbfd29475	-1.6451555
57	0xbf10ee11	-0.5661326
58	0xbfaf7706	-1.3708198
59	0x3e0a17b2	0.13485602
60	0xbe0f5e06	-0.14000711
61	0xbfc877d4	-1.5661569
62	0xbf96c552	-1.1778967
63	0xbccc39db	-0.024929931

pre_layer.9.running_var f4 [64]
0	0x3ea2d086	0.31799716
1	0x3e8b21ab	0.27174124
2	0x3ee6177d	0.44939795
3	0x3e85f8a7	0.2616627
4	0x3e9a4484	0.30130398
5	0x3e82f97b	0.25580963
6	0x3e929a93	0.28633556
7	0x3e7bafc3	0.24578767
8	0x3f001246	0.50027883
9	0x3f8566f2	1.0422041
10	0x3e88f723	0.2675105
11	0x3fc68bdf	1.5511435
12	0x3e645dc6	0.22301397
13	0x3e233c55	0.15940984
14	0x3e408f2e	0.18804619
15	0x3e87fee4	0.26561654
16	0x3e95a8fe	0.29230493
17	0x3eba16f9	0.36345652
18	0x3f3d033f	0.7383308
19	0x3eb51a47	0.3537161
20	0x3e7af68d	0.24508114
21	0x3e8ee8df	0.27912042
22	0x3e7fa599	0.24965514
23	0x3e68d031	0.22735669
24	0x3efab956	0.48969525
25	0x3ea003f5	0.3125302
26	0x3eb91237	0.3614671
27	0x3e5de54f	0.21669506
28	0x3f17c791	0.5928889
29	0x3e896f9f	0.26842973
30	0x3ece6f96	0.40319508
31	0x3eb0a58b	0.345013
32	0x3f4c2a23	0.79751796
33	0x3e6219de	0.2208018
34	0x3e9f6bba	0.31136876
35	0x3e7fb323	0.24970679
36	0x3e4ffcbc	0.20311254
37	0x3e8bfcf2	0.2734142
38	0x3e5effa4	0.21777207
39	0x3ece3fd4	0.40283072
40	0x3e925e3a	0.28587514
41	0x3ed95cc0	0.42453575
42	0x3eb2e842	0.34942824
43	0x3e6318db	0.2217745
44	0x3f8290a5	1.0200392
45	0x3e573c85	0.2101918
46	0x3e8b46c7	0.27202436
47	0x3ede31d3	0.43397388
48	0x3e736355	0.23768361
49	0x3e8dcb24	0.27694046
50	0x3ec4dd52	0.38450104
51	0x3fd8e70c	1.694551
52	0x3e860931	0.26178887
53	0x3e53a4a1	0.2066827
54	0x3e852c92	0.26010567
55	0x3e573b09	0.21018614
56	0x3ef10635	0.47075048
57	0x3e863968	0.26215672
58	0x3e389b56	0.18028006
59	0x3e7f162c	0.24910802
60	0x3e83feeb	0.25780424
61	0x3eb776ad	0.3583273
62	0x3eb4a848	0.35284638
63	0x3eb9e82c	0.36309946

fc.weight f4 [128, 576]
0	0xbbfac4b9	-0.0076528457
1	0x38aba40a	8.18447e-05
2	0xbbff8edd	-0.007799013
3	0xbd06ae77	-0.032881226
4	0xbd833843	-0.064072154
5	0xbd437ec5	-0.04772832
6	0x3d83299c	0.06404421
7	0x3d17d1c6	0.03706529
8	0x3c76b670	0.015058145
9	0xbbec84e9	-0.0072179926
10	0x3d17089c	0.036873445
11	0x3cd309f9	0.025761591
12	0xbd1d3182	-0.038377292
13	0xbda45005	-0.08023075
14	0xbce7104b	-0.028206011
15	0xbc934a1a	-0.01797967
16	0x3d2cf18a	0.042222537
17	0x3d9417f0	0.07231128
18	0x3b908f40	0.004411608
19	0xbc51011f	-0.012756615
20	0x3bd7b3c4	0.006582709
21	0x3d10907a	0.035294034
22	0x3d2ddcd9	0.042446945
23	0xbca2add3	-0.019858276
24	0xbcf6e7ce	-0.03013983
25	0x3d03525e	0.032060973
26	0xbc047d3c	-0.008086499
27	0x3d1beeac	0.038069412
28	0x3c53cecc	0.012927722
29	0x3c909caa	0.017652828
30	0x3d0a826d	0.03381579
31	0x3c166309	0.009178885
32	0x3d769efb	0.06021021
33	0x3d3178f9	0.04332826
34	0xbce94a9b	-0.028477957
35	0x3cedc89c	0.029026322
36	0xbcee813d	-0.02911436
37	0xbd554e4c	-0.052076623
38	0x3ce670c6	0.028129946
39	0x3ccf27ec	0.02528759
40	0x3c8d2f5c	0.017234497
41	0xbd2ee95d	-0.04270302
42	0x3d64e4ec	0.05588238
43	0xbc3b30c8	-0.011425205
44	0x3ca208df	0.01977962
45	0x3b4350d6	0.002980282
46	0x3d35dca8	0.044399887
47	0x3c2039f0	0.009779438
48	0x3cfc60d5	0.030807892
49	0xbd3c6aa5	-0.04600014
50	0xbb0536dc	-0.0020326888
51	0x3d489080	0.04896593
52	0x3d4efc01	0.0505333
53	0x3c192da6	0.009349262
54	0x3d4a9402	0.049457557
55	0x3c5aed66	0.013362264
56	0x3cb2e3c4	0.021837123
57	0xbcb1c5aa	-0.021700699
58	0x3d1e0ce5	0.038586516
59	0xbb32f9b9	-0.002730949
60	0xbd03c5e1	-0.032171134
61	0xbd379345	-0.04481818
62	0x3b86a447	0.004108939
63	0x3cb69c4d	0.022291327
64	0x3d1751a3	0.03694309
65	0x3b5231e2	0.003207319
66	0x3ba75708	0.0051068105
67	0xbd2df0db	-0.042466026
68	0xbcd5bf26	-0.026092123
69	0x3b3fe6aa	0.0029281774
70	0xbc8720eb	-0.016495189
71	0xbccd77ee	-0.025081601
72	0xbd0054ff	-0.03133106
73	0xbb1302af	-0.002243202
74	0xbd4d1dd7	-0.050077286
75	0xbcf81690	-0.030284196
76	0x3d0dc949	0.03461579
77	0xbcd8b461	-0.026453199
78	0xbc567cfb	-0.013091321
79	0xbc275b20	-0.010214597
80	0x3d091e6a	0.03347627
81	0xbc95c813	-0.01828388
82	0xbd7644ba	-0.060124137
83	0x3c3c1b3e	0.011481104
84	0xbd9ffaf0	-0.078115344
85	0xbd2639e6	-0.04058256
86	0xbc52a79b	-0.012857343
87	0xbd468683	-0.048468124
88	0x3c2398f8	0.009985201
89	0x3ccbe8dc	0.02489131
90	0x3cae91db	0.021309784
91	0x3d7368a6	0.059425972
92	0x3d76bb7f	0.060237404
93	0x3ca863f8	0.020555481
94	0xbd75a765	-0.059974093
95	0x3d1d640f	0.0384255
96	0xbd2f4a6c	-0.042795584
97	0xbd51b321	-0.05119622
98	0x3d27f750	0.04100734
99	0x3c97a273	0.018510079
100	0xbc204e69	-0.009784319
101	0x3c2f93e7	0.010716415
102	0x3bedbc11	0.0072550853
103	0xbc85b868	-0.016323283
104	0xbd28dc6e	-0.041225843
105	0xbda88894	-0.08229175
106	0xbc68b2bb	-0.014202769
107	0xbd0c0e6b	-0.034193438
108	0xbbe3df88	-0.0069541372
109	0x3b5d8088	0.0033798534
110	0x3c776d86	0.015101796
111	0x3d618031	0.055053893
112	0x3d4caa5b	0.04996715
113	0x3c96e5df	0.018420158
114	0xbbb4ea72	-0.005521112
115	0x3be252c1	0.0069068377
116	0x3c9db5aa	0.019251663
117	0x3ba5cc6c	0.0050597694
118	0xbca6a5cb	-0.020342728
119	0xbc3eaab4	-0.0116373785
120	0xbd108f0a	-0.035292663
121	0xbd51d227	-0.051225808
122	0xbd4648e0	-0.048409343
123	0xbd347ed2	-0.044066258
124	0x3c8426a6	0.01613171
125	0x3cf36cae	0.029714908
126	0x3cff684b	0.03117766
127	0xbd142644	-0.036169305
128	0x3bcfc9e5	0.0063412064
129	0xbd01cfed	-0.031692434
130	0x397c9065	0.00024086384
131	0x3b72bc45	0.0037038487
132	0x3cd4ab33	0.02596054
133	0x3c368d19	0.011142039
134	0xbd2e71fc	-0.042589173
135	0x3bf78576	0.0075537516
136	0x3b1037f5	0.002200601
137	0x3c1c4f69	0.009540417
138	0x3ae0098f	0.0017092692
139	0x3d15f78a	0.036613025
140	0xbca55951	-0.020184191
141	0x3c753bc6	0.014967864
142	0xbc5aec61	-0.013362021
143	0xbc34c41a	-0.011033082
144	0x3d8d80de	0.06909345
145	0xbd1e539c	-0.038653955
146	0xbb3e2ff6	-0.0029020286
147	0xbd510dce	-0.051038556
148	0xbcb18578	-0.021670088
149	0xbd707dc0	-0.058713675
150	0xbd2f0578	-0.042729825
151	0xbc16372b	-0.0091684265
152	0xbd02a1a4	-0.031892434
153	0xbc285b7a	-0.010275716
154	0xbba62426	-0.005070227
155	0xbcdc8ab4	-0.026921608
156	0x3d1604ce	0.036625676
157	0xbc20e578	-0.009820335
158	0x3bf96e17	0.0076120007
159	0x3c26ed38	0.010188393
160	0x3c0e9654	0.008702833
161	0xba620f4f	-0.0008623497
162	0xbd8f7068	-0.07003862
163	0xbc6bed7e	-0.014399884
164	0xbb8f91bb	-0.004381386
165	0xbd546e49	-0.05186299
166	0xbbf6272b	-0.0075119934
167	0xbca43aeb	-0.020047626
168	0x3c36e530	0.011163041
169	0x3b98935c	0.0046562385
170	0xbcdd1d5b	-0.026991537
171	0x3e0fb3f0	0.14033484
172	0x3d349c71	0.044094507
173	0x3c7451fc	0.014912125
174	0xbd1998db	-0.03749929
175	0x3d00288e	0.031288676
176	0x3cbabdb6	0.02279554
177	0xbc6c17be	-0.014409957
178	0xbc9bd35d	-0.019021684
179	0x3c85ff08	0.01635696
180	0x3d02c712	0.03192813
181	0x3c80a420	0.01570326
182	0xbcdb8c9f	-0.026800452
183	0xbc705073	-0.014667618
184	0xbd2e0871	-0.04248852
185	0xbd35ad91	-0.04435498
186	0x3b8c600d	0.004283911
187	0xbd0c2e21	-0.03422368
188	0x3d3f1fac	0.046661064
189	0xbd7d3e75	-0.06182714
190	0xbd322477	-0.043491807
191	0xbd5fb548	-0.054616243
192	0xbc8c0b75	-0.017095307
193	0xbd36471a	-0.0445014
194	0xbaafc723	-0.0013410788
195	0xbd11fc05	-0.035640735
196	0x3c69d5f8	0.0142722055
197	0x3d1fdfae	0.039031677
198	0x3d0adb62	0.033900626
199	0xbb8998d4	-0.0041991267
200	0x3c3fba24	0.011702094
201	0x3cdb93a4	0.026803799
202	0xbc72672d	-0.014795107
203	0x3ce7d6b0	0.028300613
204	0xbd116ff9	-0.035507176
205	0xbcb134ff	-0.021631716
206	0xbc8c70b5	-0.017143587
207	0x3d351bd5	0.044215996
208	0x3d2903ef	0.041263517
209	0x3cd7cc66	0.026342582
210	0x3cb345fe	0.02188396
211	0x3c46802b	0.012115519
212	0xbccdabc7	-0.025106324
213	0x3d8af3e8	0.06784803
214	0xbcf0a055	-0.029373327
215	0x3d68355a	0.056691505
216	0x3ca54af1	0.020177336
217	0x3dc53157	0.096285515
218	0x39b3072b	0.0003414688
219	0xbd02e951	-0.03196079
220	0xbcc95100	-0.024574757
221	0x3c07409b	0.008255149
222	0x3cff29a1	0.03114778
223	0xbd39561d	-0.04524814
224	0x3d1b4200	0.03790474
225	0xbd3949f4	-0.045236543
226	0x3d7ebeb9	0.062193606
227	0x3b8c97ea	0.0042905705
228	0x3cef8c36	0.029241662
229	0x3ce01aee	0.027356591
230	0x3c07758e	0.008267773
231	0xbcc97ef3	-0.024596667
232	0xbd147af6	-0.036250077
233	0xbc23b9e3	-0.009993049
234	0xbd00cfac	-0.03144805
235	0x3b03546c	0.0020039333
236	0xbc418bf3	-0.011813152
237	0x3d48c289	0.04901365
238	0x3d493995	0.04912718
239	0xbab44c03	-0.0013755563
240	0xbcae4d37	-0.021277053
241	0x3d007a00	0.03136635
242	0x3c3e2a97	0.011606834
243	0x3d1f0f88	0.03883317
244	0x3d26a5a8	0.040685326
245	0xbc6884c0	-0.014191806
246	0x3c8e0238	0.017335042
247	0xbc0928f5	-0.008371581
248	0x3d1d0a63	0.038339984
249	0x3d1c222b	0.038118523
250	0xbcee1806	-0.02906419
251	0xbc2c2250	-0.010506228
252	0xbb3cfa7d	-0.0028835826
253	0xbb482bdc	-0.003054372
254	0x3c9283c1	0.01788509
255	0x3d9d9518	0.07694453

fc.bias f4 [128]
0	0x3c4c5f7b	0.012473936
1	0xbd3b8c31	-0.045787994
2	0x3c015569	0.0078938985
3	0xbbc23721	-0.005926982
4	0x3c903cd6	0.017607134
5	0xbd9ce7fb	-0.07661434
6	0xbd79c88c	-0.060982272
7	0x3d587ebd	0.052855242
8	0x3ce75edc	0.028243475
9	0x3d79fd47	0.06103256
10	0x3e0c8c69	0.13725437
11	0xbb1f24e4	-0.0024283463
12	0xbbc654f1	-0.0060526063
13	0x3c494900	0.012285471
14	0x3d509646	0.050924562
15	0xbcb150d7	-0.021644993
16	0x3d264265	0.040590663
17	0x3cee0e48	0.029059544
18	0xbdb670bb	-0.089082204
19	0xbd4992d8	-0.049212307
20	0xbd808419	-0.06275196
21	0xbc86daa4	-0.016461678
22	0x3cc2c22f	0.023774235
23	0xbcec132d	-0.028817737
24	0xbc8b5d89	-0.017012374
25	0x3a78d5a0	0.0009492282
26	0xbbc1158f	-0.0058924626
27	0x3cba5b7a	0.022748698
28	0x3d388392	0.04504735
29	0xbcf5740f	-0.029962568
30	0x3b61f305	0.0034477126
31	0xbd6d73f5	-0.057971913
32	0x3deb6c29	0.11495239
33	0xbd8c3801	-0.068466194
34	0xbcb30a36	-0.021855455
35	0xbd97a793	-0.07405009
36	0xbd868a25	-0.06569318
37	0x3d562384	0.052279964
38	0x3d349cad	0.04409473
39	0xbc919f6c	-0.017776214
40	0xbd4bc6e9	-0.049750242
41	0xbd0e4f42	-0.034743555
42	0xbbeba855	-0.0071916976
43	0x3da5dc55	0.080986656
44	0x3c91dbb2	0.017804954
45	0xbcc6b970	-0.024258345
46	0x3ccbaa19	0.024861382
47	0x3d933887	0.07188516
48	0x3d743cb9	0.059628222
49	0x3cbde32e	0.023179617
50	0x3be1c89b	0.006890369
51	0xbcd2402c	-0.025665365
52	0xb9d87475	-0.00041285498
53	0x3cdb2830	0.026752561
54	0xbcd56d5d	-0.026053125
55	0xbce0edd3	-0.027457153
56	0x3bd124b8	0.006382551
57	0xbd175ccf	-0.036953744
58	0xbcda2ead	-0.026633585
59	0x3db70e24	0.08938244
60	0x3da91b7b	0.082571946
61	0x3bd6f1c6	0.0065595834
62	0x3dc1e85e	0.09468149
63	0xbc8d1598	-0.01722221
64	0x3db8f669	0.09031374
65	0xbd0998fd	-0.033593167
66	0x3c96dc61	0.018415632
67	0x3dc1f4e9	0.09470541
68	0xbd5ac66f	-0.053411897
69	0x3ca58530	0.02020511
70	0xbc18aecc	-0.009319019
71	0x3de4c403	0.11170199
72	0x3bd1f99c	0.0064079296
73	0x3ca9845c	0.020692997
74	0xbd3f3ae4	-0.04668702
75	0x3d021a45	0.031763334
76	0xbe02c1e7	-0.1276928
77	0xbd8dae39	-0.06917996
78	0xbcca80f7	-0.024719698
79	0x3cefb464	0.029260822
80	0x3c7b936a	0.0153549705
81	0xbb95c0af	-0.004570089
82	0xbcbf2f17	-0.023337884
83	0x3cbaa5d0	0.022784144
84	0x3ca50d0d	0.020147825
85	0x3d42fb20	0.047602773
86	0x3d335f0c	0.043791816
87	0xbcc592cf	-0.024117855
88	0x3c82375f	0.015895544
89	0xbda71600	-0.08158493
90	0xbc6c6abf	-0.014429747
91	0xbd973eff	-0.073850624
92	0x3babb18e	0.005239672
93	0x3ceacc3c	0.02866184
94	0x3cf85819	0.030315446
95	0xbafe4b63	-0.0019401129
96	0xbb8b9727	-0.004259962
97	0x3d5e7f1f	0.05432045
98	0xbc6c1ddf	-0.014411419
99	0xbc3f048c	-0.011658799
100	0x3d8a0fb8	0.06741279
101	0xbcfb446a	-0.03067227
102	0x3c74563d	0.014913139
103	0xbd05759c	-0.032582864
104	0xbd6497a3	-0.055808675
105	0xbd0e535a	-0.03474746
106	0xbb22aa60	-0.002482079
107	0xbce5db1d	-0.028058583
108	0xbcca0291	-0.024659427
109	0xbce0762e	-0.027400102
110	0xbdef30e2	-0.116792455
111	0x3d326bdb	0.04355989
112	0x3cf1b1f9	0.02950381
113	0x3d69ffb8	0.057128638
114	0x3cf85b52	0.030316982
115	0x3c5061aa	0.012718597
116	0x3b41a184	0.0029545734
117	0x3dab6e60	0.08370662
118	0xbd6bbd6a	-0.057553686
119	0xbb80fcd1	-0.003936388
120	0x3de893e2	0.113563314
121	0xbdbf1835	-0.09330789
122	0x3d2f5a66	0.04281082
123	0x3d94cdf3	0.07265844
124	0xbc51e011	-0.012809769
125	0x3d2cbbea	0.042171396
126	0xbdaaaeb0	-0.083341
127	0x3dd979f7	0.10618966
